Models_dump/model_capsule_patch.pth (torch, 750194 bytes, 12 tensors)

encoder.0.weight f4 [32, 3, 3, 3]
00000000: 417d d9bc 77b5 c23d 3173 bfbd d265 cabd
00000010: 90e9 18be 354e c6bd 1e7f 33be f846 253d
00000020: 5fa3 0b3e db6a 0abe 48e5 e1bc 4529 8d3d
00000030: bee6 2ebe 9181 14be fb27 163c 1ff0 f5bd
00000040: 123c 33be 3634 4dbd 91a1 173d 18ee 1b3d
00000050: 4848 043e a56b de3d 69c0 19be b9cf b4bd
00000060: dd36 3cbd dead aabb 8ee4 11be d10c 093e
00000070: 295b 14be 44d5 203e f601 803d 9f6d 4c3e
00000080: da60 22be 867f df3d 3a9a 233e ddf2 1b3c
00000090: 91b9 e13b 1eed 113e fc58 b0bc 1806 363e
000000a0: 73c9 0c3e 5be2 ce3d 07f0 73bd 69b1 67bd
000000b0: 724a 8c3d eadc 4a3e 9e00 843d edc4 2b3d
000000c0: a395 4a3c c800 263e 3f3e 483e fb00 b139
000000d0: 2e3f 0b3e 0029 4d3e 0115 4f3d 29f6 3c3e
000000e0: 7745 193e 35d4 1c3e a85c fd3c 7abd 6fbd
000000f0: c6fd e6bd 385c 92bd d069 353e 9b94 1fbe
00000100: 4406 34be 627c 93bc 0bce 73bd a082 9f3d
00000110: 7f24 ed3d 9a5c 6a3d 158f 6f3d 7c44 243d
00000120: edb2 3b3d 92bd a93c 7d79 09be fcc6 2a3e
00000130: 1386 7f3d b089 9ebd ba9b 54bd 8efa 243e
00000140: f3d8 2a3e 58ba 083e 1b49 3abe 6652 8f3d
00000150: 3367 b1bd 6043 023e 5ce4 85bd d9a7 d03c
00000160: 87fd 073d 36af 253d e419 7ebc f3a7 8cbd
00000170: c604 b7bd 4298 f03d 6fc5 043e 8b58 b7bb
00000180: 8e86 b83c 2333 8bbd 1764 d0bd f380 193e
00000190: 19c1 d53d b711 683d 3689 24bb 68bd 55bd
000001a0: 8baa 073e f359 8dbd 248a 323e bd49 0d3b
000001b0: 399a 5ebd cb51 cf3d 0bb6 1bbe 9e32 8cbc
000001c0: f7d3 853c c698 09be 1e5e a4bc 44d0 cdbd
000001d0: a811 e6bd 996c f2bd 28fb 1abd 9cdf 7cbd
000001e0: 8e98 513c fe5c 17be 20d6 42bc 8164 3dbd
000001f0: c9a3 593e e64a af3d db92 163e 83fc 14bd
00000200: 581a 023e 7285 263d 466d f4bc 7d31 603d
00000210: 847e 3cbc 7342 273d 33b1 0fbe 980a 2bbe
00000220: b816 b23d b721 163e 47fb a93d 3564 f83d
00000230: 68dd 03be 31d4 393e 0241 043e 0157 50bd
00000240: e753 9d3c f74e 6cbd 6a2b 213d e8ca 813b
00000250: 5f59 3bbd dacc 5e3c 204f afbb 82a8 ed3d
00000260: 67c8 18be 5682 b4bd e67a 103e d874 2abe
00000270: ac3e 8a3d 61a6 18bd 3735 f63c 6c28 2a3e
00000280: 0b33 c43d fbf5 a13d 9943 fdbd fb93 babd
00000290: 52e5 bd3d 9297 1e3d 8a59 c23d f5ec ac3d
000002a0: cc89 9fbc fdf1 3ebe b880 bebc 0252 a03d
000002b0: e0d7 4cbb ebdf 843d a197 2e3e 989b a43b
000002c0: 08da 273e e82d 4abe 7869 6abc b499 b73b
000002d0: bc2c d0bc 820c 863d cba9 28be 088f 98bd
000002e0: 144d 733d 1c96 c53c 6448 de3d d78b c6bc
000002f0: 43f4 35be 0248 323e af9b 363e 4901 2ebe
00000300: dec9 a8bd 688f 3abe 6303 d9bd 432e bc3d
00000310: 008f 3b3d 8701 8d3d 080e 423d 6c82 43be
00000320: a6f4 2bbe 6d16 97bd 3b9d 123e 3e2e a53c
00000330: 25a6 dabd 7ec9 18be bc20 2dbe f9b0 ecbd
00000340: 62ca 11be 32f2 cd3d 36da 2b3e b682 aa3c
00000350: 65d4 32be 92d0 fe3d 3a85 ecbb 3202 853d
00000360: 219a c63d 114b 4d3e 32f6 1bbd db03 2ebe
00000370: c2e3 62bd e668 bb3d beed 28be 7208 2d3b
00000380: 5bdc 19be ba81 5fbc 5dd0 8b3b 19f8 143e
00000390: 12af 1fbe 0402 353e 4b02 38be 01a7 b93d
000003a0: f8ee c43c d279 aabd 257f 45bd 2bac 353e
000003b0: 9d12 85bd 19bd bcbd 7041 1f3e 0b33 073c
000003c0: 7414 6b3d fc5a debd cda3 1dbc 144c f4bd
000003d0: 68a5 a73d 9eee 04be 230b d83c 1d79 4b3e
000003e0: c4e1 723b 1331 8c3c 3470 96bd cf0d 313e
000003f0: add5 2b3d 0591 a5bd 592d de3d eccf 3bbe
-0.026548984 0.09507268 -0.09348143 -0.09882702 -0.14932847 -0.096828856 -0.1752896 0.040350884
0.1363654 -0.13517325 -0.02757515 0.06892637 -0.17080209 -0.1450255 0.0091648055 -0.1200869
-0.17503384 -0.05009862 0.037019316 0.03806886 0.12918198 0.10860375 -0.15014805 -0.088286825
-0.04595076 -0.005208715 -0.14247343 0.13383795 -0.144879 0.15706354 0.06250374 0.19963692
-0.15857258 0.10912995 0.15976802 0.009518352 0.0068885763 0.1425061 -0.021526806 0.17775762
0.13748722 0.10101768 -0.05955508 -0.056565676 0.06850137 0.19810835 0.0644543 0.04193585
0.012364778 0.16211236 0.19554995 0.000337608 0.1359832 0.20035172 0.05055714 0.18453278
0.14967905 0.15315326 0.030927971 -0.05853031 -0.11278872 -0.071464956 0.17716146 -0.15584032
-0.17580515 -0.018003646 -0.05952267 0.077885866 0.11579227 0.057217218 0.058486063 0.040104374
0.045824934 0.020720277 -0.1342525 0.16677469 0.062383723 -0.077411056 -0.051906325 0.16111204
0.16684322 0.13352334 -0.1819195 0.06998138 -0.08662262 0.12721014 -0.06537697 0.025470661
0.033200767 0.040450297 -0.0155091025 -0.06867971 -0.08936457 0.11747791 0.1296594 -0.005595272
0.022525098 -0.06796863 -0.101753406 0.14990596 0.10437221 0.05665752 -0.0025106198 -0.052182585
0.1324865 -0.06901922 0.17435509 0.0021558844 -0.054346297 0.10123023 -0.15206163 -0.01711398
0.016336424 -0.13437185 -0.02006441 -0.10049489 -0.112338364 -0.118371196 -0.037837178 -0.061736688
0.0127927195 -0.14781567 -0.011891872 -0.046238426 0.21253885 0.085592076 0.14704458 -0.036373626
0.12705362 0.040654607 -0.029837262 0.054734696 -0.011504773 0.040834855 -0.1403244 -0.1670326
0.086957395 0.14661299 0.082998805 0.12128488 -0.12877429 0.18147351 0.12915424 -0.050864223
0.019205047 -0.057692494 0.039348044 0.003960956 -0.045739528 0.013598645 -0.0053500086 0.11604406
-0.14920197 -0.08813922 0.14109382 -0.16646135 0.06750235 -0.037268046 0.030054672 0.16616982
0.09580048 0.07908245 -0.12366409 -0.09110256 0.09272255 0.038718767 0.094897345 0.084436335
-0.019474886 -0.18646999 -0.023254737 0.07828142 -0.0031256601 0.064880215 0.1705003 0.005023431
0.16391766 -0.19744074 -0.014307372 0.0056030396 -0.025411956 0.065453544 -0.16471021 -0.07449156
0.05939968 0.02411943 0.10853651 -0.024236603 -0.1776896 0.17410281 0.17832826 -0.16992678
-0.08241628 -0.18218768 -0.10596349 0.09188511 0.045790672 0.06885057 0.047376662 -0.19092721
-0.16792545 -0.07377324 0.14317791 0.020163652 -0.10676221 -0.14920613 -0.16907018 -0.11557192
-0.14237359 0.10055961 0.1678246 0.020814281 -0.17463835 0.124421254 -0.0072180303 0.06494559
0.096973665 0.20048167 -0.038076587 -0.16993658 -0.055392988 0.09150867 -0.16496941 0.002640274
-0.15025465 -0.013641769 0.004266782 0.14547767 -0.15594128 0.1767655 -0.17969625 0.090650566
0.02403973 -0.08324017 -0.048216958 0.17741458 -0.06497691 -0.09215755 0.15552306 0.008251916
0.057392552 -0.10857198 -0.009621573 -0.11928573 0.081858456 -0.1298165 0.026372498 0.1987042
0.0037060836 0.017113244 -0.0734562 0.17290424 0.041951824 -0.08084301 0.10848493 -0.18341035

encoder.0.bias f4 [32]
00000000: 46d8 99bd 32e3 17be f74e f73c 0ea4 713d
00000010: a46d 033e 3b99 46be 741f 1dbe 37c2 13be
00000020: 1644 343e 6eda 893d 75a6 ff3d 9ab7 2ebe
00000030: 0c08 d4bc 7772 473e e3f7 dfbd b788 39be
00000040: 4e03 d9bc cf85 223e 6052 3abe 12de 05be
00000050: 2523 2bbd a372 07be b542 0d3e 5e26 823d
00000060: d9f9 9b3d 3578 a73d b35d 20be 5819 d5bc
00000070: 536e 5abc 53be 38be c839 fb3d f76c 0b3e
-0.07511954 -0.14832762 0.03018902 0.058994345 0.12834793 -0.1939439 -0.1534403 -0.14429556
0.17604098 0.06731115 0.12482921 -0.17062226 -0.025882743 0.19477259 -0.109359525 -0.18118559
-0.026490834 0.15871356 -0.18195486 -0.13072994 -0.041781563 -0.13227324 0.13794978 0.06354974
0.07616014 0.081772245 -0.15660743 -0.026013061 -0.013331967 -0.18041353 0.1226688 0.13615786

encoder.2.weight f4 [64, 32, 3, 3]
00000000: 832a 373d 0944 613d 1701 5abd 3344 bf3c
00000010: 7d0d 2b3d cc26 4b3d 9447 3bbd 734d a33b
00000020: 68de b0bb 0520 813c 0353 063d bb91 33bd
00000030: ce79 ca3c 5cf2 233c df35 a43c 6024 bdbc
00000040: 70af e8bc a8e9 65bd 546d 583d 8ede f93c
00000050: 57e4 243c 6783 203d c3db 593c 5304 a1bc
00000060: 44c3 1d3d a8ef 9dbc d20e babc 835b 0a3d
00000070: cc40 883d e6e3 7e3c fa69 d3bc b2df 503d
00000080: f1a9 9d3c cb99 31bd b336 d1bc 26d4 4a3d
00000090: dd83 28bd 71a6 793d 9b89 6c3d a968 c1bc
000000a0: b6a5 abbc c206 a63c 6957 f5bc 2c84 ac3d
000000b0: 8d14 1e3d 7162 403c d646 e23c 5910 32bd
000000c0: 26ba 743c bab8 0b3d e001 8cbd c7b8 953b
000000d0: 742c 26bd 616b e93c 8477 543c 212b f13c
000000e0: e7ff 133d d372 83bb 582a 483d 4f67 eb3c
000000f0: 2057 593d bd49 6a39 cc42 293c ce35 cc3c
00000100: 9889 443b df80 1cbd 86f8 0d3d afc3 503d
00000110: ae59 41bd 061a 243d 1a4c 68bd 71b9 163d
00000120: a7ac 4c3c fe4a a3bc dc39 673d e823 353d
00000130: f2c5 a63d b3b3 be3c 3178 9f3d cfeb 48bb
00000140: 07f4 2e3d 3e14 8e3d 5b44 a73c b67d a93c
00000150: 46bf e4bc afb4 2f3c 79f6 8b3d 91ac 37bc
00000160: 37bf 273d beb2 7a3c 996e e53b 97fb c53d
00000170: d7a7 9f3d 5320 913d 4f9e 1e3c da64 d63b
00000180: efad 923d f97c 583d b503 3e3d 6a4c e7bb
00000190: e229 16bd 8400 05bc a87c 0abd c71d 6e3d
000001a0: 01d2 243d e798 6b3d 4916 c8bc 8931 9c3b
000001b0: f89d 4fbd a97d f73c deef 9eb8 83a4 2ebd
000001c0: ff02 57bc 8aa3 e83b fb42 6abd 6b87 bb3c
000001d0: 5d89 2a3c 22c0 03be c0f2 19bd f483 56bd
000001e0: 6962 013e 3b3d 0e3e d398 cb3d 7fed 93bd
000001f0: 26e6 ad3d 92d8 be3d e954 983c aa7b 463d
00000200: cac0 73bc 137f e53b 8711 02bd 6a93 1cbd
00000210: f0c1 bc3c 2621 c4bc 68cf a9bc 067b c3bc
00000220: 0c04 69bd 015f 7fbc 6a04 e339 2c22 a23c
00000230: 20d5 9a3c 2dbf 703c d9b6 8abd 7e95 283d
00000240: 82eb 20bd 41f0 36bd 6e7c 99bc 8108 e4bc
00000250: d0d1 d53c c264 3d3c bf7d 803c cb25 243c
00000260: d898 373b 123f 1d3d ed89 023d 522e 503d
00000270: e5b4 403d 3bd7 c03b 6a40 af3d bd14 413d
00000280: ce87 e3bb e753 a83d 0b50 cdbc 7f9f 8439
00000290: 09ae 0a3c 9c32 f7bc a107 843c b5cc d7bc
000002a0: 188d 60bd 54cb 50bd 4f8e e1bc 02c9 80bd
000002b0: 2f45 363d fd59 05bd 913e 57bc 34c3 25bd
000002c0: e853 9f3c f730 8cbc 4a2a 0cbc fa3f 54bd
000002d0: 8616 0b3d b31b d63c 29bb 0bbd f9bb 4fbd
000002e0: e0b3 b03c f967 423d 5dfa 3bbd cc16 f53c
000002f0: 5a23 ecbc c6d6 5abd df29 1fbd b1d9 9f3c
00000300: 9753 72bd 88f9 e9bc 7e5d bfbc 7f12 6ebd
00000310: 5586 133d 3a42 7bbd f2b1 333b db87 d53a
00000320: 6e5e 39ba 750b 8bbc b8a9 4a3c 85f2 1fbc
00000330: 2dd8 c2bc 2a3f 73bc 8474 a63d c661 883c
00000340: 2f00 763d 074d 293d 4d61 2b3d 40fe 47bd
00000350: 70d3 083d 8737 a9bc 05d4 073d 6825 bf3c
00000360: 50a2 653d 5a51 1abd 888b 683d ab41 0e3e
00000370: a63b 563e 5090 1d3e dc1f c23d 3d39 d23c
00000380: 5598 0d3e fedd fc3c 17a4 13bc 2f73 4f3d
00000390: a40c 00bd 68a0 c9bc 0a42 fcbc 50d7 d63b
000003a0: fdea 953c ff7d 503d 57d3 9bbc 9c93 b53b
000003b0: 40c5 b4bb 7bdc 483c 3cdf 81bc 9d07 ba3c
000003c0: a3d0 713c 1ed2 e7bc 981e 2dbc f758 67bb
000003d0: 7eec 8439 1118 fcbc 751a 203d 7fd4 5fbc
000003e0: 4ba5 363c 881a 813a af96 54bd 23e4 0fbd
000003f0: c93d 003d 94bd cfbc 5c7d f03c 67bb 78bc
0.044718277 0.054996524 -0.053223696 0.02334795 0.04176091 0.049597546 -0.04572256 0.004983598
-0.0053976066 0.015762338 0.03279401 -0.04384015 0.024716284 0.010006513 0.020045219 -0.023088634
-0.028403968 -0.056131035 0.05283864 0.03050163 0.010064206 0.039187815 0.013297024 -0.019655382
0.038516298 -0.019279316 -0.022712145 0.03377868 0.06652984 0.015557265 -0.02580737 0.050994582
0.019246073 -0.04335956 -0.025538778 0.049518727 -0.04114138 0.060949747 0.05774842 -0.023609476
-0.02095304 0.020266894 -0.029948907 0.08423647 0.038593818 0.01174222 0.027621668 -0.04347262
0.014936959 0.034111716 -0.06836295 0.0045691463 -0.040569738 0.028493585 0.012967948 0.02943951
0.03613272 -0.004011491 0.048868507 0.028735785 0.053061604 0.00022343449 0.010330867 0.024928
0.0029989239 -0.03820884 0.03466084 0.05096787 -0.047204666 0.04006388 -0.0567132 0.036797944
0.012492335 -0.01993322 0.056451663 0.044223696 0.08143224 0.023279047 0.077865966 -0.003065813
0.04271319 0.06937455 0.020418337 0.020689826 -0.027923238 0.010724231 0.0683412 -0.011210577
0.04095384 0.0153014045 0.0070017097 0.096671276 0.07795685 0.070862435 0.009681298 0.006542784
0.071620815 0.05285356 0.046390254 -0.00705867 -0.036661036 -0.008117799 -0.033810288 0.058133867
0.040239338 0.057518866 -0.024424689 0.0047666472 -0.05068776 0.030211287 -7.578706e-05 -0.04263736
-0.013123273 0.0070995735 -0.057192784 0.02289172 0.0104087265 -0.12866262 -0.03758502 -0.052371934
0.12635197 0.13890545 0.09941258 -0.07223033 0.08491163 0.09318651 0.018595176 0.04845778
-0.014877507 0.007003674 -0.031754997 -0.038226523 0.023041695 -0.023941588 -0.020728782 -0.023862373
-0.056888625 -0.015586616 0.00043300103 0.019791685 0.018900454 0.014694017 -0.06773157 0.04115819
-0.039287098 -0.044662718 -0.01873609 -0.027836086 0.026101023 0.011559667 0.01568496 0.010018776
0.0028014686 0.038390227 0.031869818 0.050825424 0.047047514 0.0058850325 0.08557208 0.04713892
-0.0069436794 0.08219128 -0.025062582 0.00025295836 0.008464345 -0.0301755 0.016116919 -0.02634273
-0.054822057 -0.05097516 -0.027533678 -0.06288339 0.044499572 -0.032556523 -0.013137476 -0.040469363
0.01944919 -0.017113192 -0.008555004 -0.051818825 0.033957027 0.026136255 -0.034114037 -0.050716374
0.021570146 0.047462437 -0.045893062 0.029918097 -0.02882545 -0.05342748 -0.03885829 0.019512983
-0.05916175 -0.028561369 -0.02336001 -0.058123108 0.03601678 -0.061342455 0.0027419296 0.0016291098
-0.0007071261 -0.016973237 0.012369566 -0.009762411 -0.023784721 -0.014846602 0.08127692 0.016648185
0.06005877 0.041333225 0.04184084 -0.048826456 0.033404768 -0.02065636 0.033161182 0.023333266
0.056062996 -0.03767524 0.056773692 0.13892238 0.20921192 0.15387082 0.09478733 0.025662059
0.13827641 0.030867573 -0.00901129 0.050646957 -0.031262055 -0.02461262 -0.030793209 0.006556429
0.018300528 0.05090141 -0.019021673 0.005541278 -0.005516678 0.012259598 -0.015853517 0.022708708
0.0147592155 -0.028298434 -0.010566376 -0.003530083 0.00025353202 -0.030773195 0.03908773 -0.013661503
0.011147807 0.0009849826 -0.051901516 -0.035129678 0.031308923 -0.025358953 0.029356651 -0.015181399

encoder.2.bias f4 [64]
00000000: 49f0 2b3d 55dd 8e3d 9d3f 5c3c 6a0e 1d3d
00000010: b0db 8a3d c777 143c 6e79 12bd f76e d13c
00000020: f4ce 0a3d be08 6bbd d3a3 74bd 7ff6 95bc
00000030: 7f87 383d 4537 b6bc 96a2 a13d 7479 e13c
00000040: ef7d 45bd e98a 083d 6e96 043d 5c29 38bc
00000050: afd1 32bd ba1a 6ebd 2eb4 5b3d 66f0 30bc
00000060: aed0 883d 6c05 093d b559 8a3d 42dd 2dbc
00000070: 819c b7ba 2d03 7fbc 8a45 01bd 115d 6bbc
00000080: f277 2ebc 62fd 233d 68ed 1f3d fc16 f6bc
00000090: 0536 48bd 5962 c73c 5016 eb3b 6bb2 083d
000000a0: ab44 80bc c09f 653c 9917 84bd 8f22 253d
000000b0: b13e e9bc 4e0a 04bd d1c4 af3d 7773 40bc
000000c0: a722 9abb 993c e43c 9f05 a93b b8a8 bc3d
000000d0: 5790 773d 0f87 823d cb73 853d 89e3 01bd
000000e0: 7772 4fbd 2723 19bd ce24 b83d f85d b13c
000000f0: b706 573a ad30 253d edda 55bd 2c86 973d
0.0419772 0.069758095 0.013442901 0.038343824 0.06780183 0.00906176 -0.035760336 0.025565607
0.033888772 -0.057381384 -0.059726547 -0.018306015 0.045051094 -0.022243151 0.07892339 0.027523734
-0.048215803 0.0333356 0.032370023 -0.01124033 -0.043657 -0.058130957 0.05363863 -0.010799503
0.066804275 0.033452436 0.067553915 -0.010611834 -0.0014008434 -0.015564722 -0.03156046 -0.0143654505
-0.010648714 0.040036567 0.039044768 -0.030040257 -0.048879642 0.024338888 0.0071742907 0.033373278
-0.015657743 0.014015138 -0.064498134 0.04031616 -0.028472276 -0.03223639 0.085824616 -0.011746279
-0.004703838 0.027860926 0.005158141 0.09211868 0.060440388 0.06373417 0.065162264 -0.031711135
-0.05064627 -0.03738704 0.08991395 0.021651253 0.00082026 0.040329624 -0.052210737 0.07398638

encoder.4.weight f4 [128, 64, 3, 3]
00000000: 5b6f 44bc 7a40 063d 1676 02bd 4bf3 d4bc
00000010: ce74 753c 51c2 e1bc c792 1abd 8807 44bc
00000020: 6495 90bc 9462 123d ab36 ddbc 6bda 673b
00000030: 1138 ce3c c777 adbc 7a57 1d3a 9864 e0bc
00000040: c622 08bd d16a 94bc 23c1 86bc 7048 9ebc
00000050: 20b7 8bbb bd36 e4bc e167 ac3c d310 b53c
00000060: 4121 d13c 95b8 41bc da2c a73c c0d7 57bc
00000070: 001c 913b b021 d1bc b73a 8c3c db0c 2d3c
00000080: 8229 efbc f522 35bb 1d98 1239 5e26 ecbc
00000090: 6bc8 09bb fe8f c5bc a3ac f0bc b28f 293d
000000a0: f1d5 89bc 1148 203d b8d2 1abd a336 d6bc
000000b0: 83ff 5b3c 401a 32bc 406c dc3b 569b 193a
000000c0: b6ed a1bb 4863 eb3c cc79 bb3c d9cd fcbb
000000d0: f831 083d a455 b13b 800d 6d3c eb63 253c
000000e0: 834e babc f076 323c 68d7 fe3c 079e 10bc
000000f0: 4142 dfba d822 013d f862 d93c a324 853c
00000100: 6b0d 55bc 9aaa 27bd ab68 893b a3b8 d2bc
00000110: 811b ac3c 8b50 66bc ef7f dd3c 01af a63c
00000120: 3b96 8e3c 4b05 cebc 40dd c8bb c1c9 91bc
00000130: 936b d63c 306e cbbc 6f90 013d c8af 11bd
00000140: e5aa 09bd 80f4 aabc 1351 c23c fbfa 223c
00000150: 2e0e c1bc 66e7 b2bc d66a 11bd abff ae3a
00000160: 0b2b 2c3c 5efc ebbc 9682 753b 52d1 07bd
00000170: 808a 5cbc 43e8 cf3b 8878 bfbc 6465 f33c
00000180: f250 0fbd a45d bfbc 1835 c33b 106b f63c
00000190: d35c 883c 5601 1cb9 1431 8a3c e55c 663c
000001a0: 887d 503c 5277 28bd aea5 a63c 5d37 bf3c
000001b0: 6eb5 ce3c ab06 56ba ab21 a0bc cd6c b63b
000001c0: 5889 e6bc 12d3 5c3c 29a7 023d 89af 9e3c
000001d0: 89a1 163c 80ae 95bb 9828 043d f663 f1bb
000001e0: 7362 d2bc 2268 1e3d bca8 0bbd f2b3 223d
000001f0: 9f84 1c3d 5b3f 16bd 60b5 c1bc 82cb 23bd
00000200: bb5b b23c 53d3 c6bc 0826 743b 9082 48bc
00000210: 3224 2ebc e6bf 00bd df2d c8bc 0e6d 97bc
00000220: d6a4 173b 1610 bcbc b7ce 083d cad6 163b
00000230: 26e4 00bd 29af b13c 1325 d7bb 9bd8 a43c
00000240: 6b1f a43b 6ec1 243d 6bc3 59bb 48d2 4abc
00000250: 306c 903c 7622 dcbb f84f ebbc 2657 83bc
00000260: 8643 bfbc a851 963c c3d3 adbc 44d4 16bd
00000270: d4fd cfbc 5374 c6bc 2f66 083d 1a8a d1bc
00000280: 9890 d7bb 5794 bb3c 36e6 ea3c be91 f23c
00000290: eba3 f23b 9ba8 173c 667d 51bc 00f0 f9b9
000002a0: 063a d6bc 6b5e a8bc 1be3 013c 2b05 973a
000002b0: b81b d3bc 3307 cc3c 08b4 10bc d20f ff39
000002c0: e012 b73c 6e4b 11bd 0034 c53c 67bd 05bd
000002d0: 3083 183d 0b86 bb3b b3a8 a7bc b680 52bc
000002e0: 04c8 603c cbde 6dbc e3bd f63c b66e c2bb
000002f0: 2628 503c b054 54bc 2b45 5e3c 634f ad3c
00000300: c6f6 01bc def0 a03c 9601 50bc 9609 22bc
00000310: 808f 9c3a 3c90 23bd 3b8b 07bc 8840 d9bc
00000320: 2326 14bd 20a1 703c 28ba c23c 58f4 e1bb
00000330: 8747 273c ba98 583c a879 cf3c 60f6 56bc
00000340: 40c6 5fbb 80f2 8b3a a043 89bb 23d4 15bd
00000350: 0038 46bc be76 cdbc b0f2 493c fba1 8ebc
00000360: 804a f63b 187b a2bc 6bd9 cfbb b9aa 0cbd
00000370: bbf4 a23c 0f7f afbc 4f8d c3bc 4b5c 60bc
00000380: 988e de3c af7c 073d c7ec 02bd 90db 0a3c
00000390: 24ba f8bc 7122 403c 56bc 18bd 9f7c 16bd
000003a0: 2f83 09bd 7a7a 213c a43e 1f3d 8675 523c
000003b0: f644 4e3c a27c dabc 5e6a 99b9 b76c c7bc
000003c0: 3fad c9bc aa95 9f3c 4785 a0bc 2239 07bd
000003d0: 1fda 1abd 5bad 3abc 5b4d 243c da24 273d
000003e0: a0a0 ca3b 1fee 13bd d02f 4bbc 6ec4 8bbc
000003f0: 275a 173d 4ecd debc 58b2 f53c c6ef 1ebd
-0.01198944 0.032776333 -0.031850897 -0.025994917 0.014981462 -0.027558478 -0.037737634 -0.011964686
-0.01764936 0.035738543 -0.027003607 0.003537799 0.025173219 -0.021175278 0.000600211 -0.027391717
-0.033236288 -0.01811734 -0.016449517 -0.01932165 -0.0042637736 -0.027858132 0.021045627 0.022102749
0.025528552 -0.011823793 0.02040713 -0.013173997 0.0044283867 -0.025528759 0.017117841 0.010562147
-0.029194597 -0.0027639244 0.00013980312 -0.028826889 -0.0021024 -0.024116512 -0.029379195 0.041396804
-0.016825648 0.039131228 -0.037798613 -0.0261491 0.013427618 -0.010870516 0.0067267716 0.00058596337
-0.0049416674 0.028733864 0.022885226 -0.0077149686 0.03325078 0.0054118205 0.014468551 0.010094623
-0.022742515 0.010892615 0.031108573 -0.008826739 -0.0017033295 0.03152737 0.02653645 0.016252821
-0.013003687 -0.040934183 0.0041933856 -0.025722807 0.021009209 -0.014057289 0.027038543 0.02034712
0.01740562 -0.025149008 -0.0061298907 -0.0177964 0.026174342 -0.024832815 0.031631883 -0.03556803
-0.033610243 -0.02086854 0.0237203 0.009947534 -0.023566332 -0.021838855 -0.035502277 0.0013351341
0.010508309 -0.028806861 0.0037461868 -0.033158608 -0.013460755 0.0063448264 -0.023372903 0.029711433
-0.034989305 -0.023360081 0.005957257 0.030080348 0.016645825 -0.00014877817 0.016869105 0.014060234
0.0127252415 -0.041129418 0.020342674 0.023341829 0.025232997 -0.0008164446 -0.019547304 0.0055671693
-0.028141662 0.013478057 0.031897698 0.019370811 0.009193786 -0.004567921 0.032265276 -0.0073666526
-0.02568171 0.038673528 -0.034096465 0.03972239 0.038212415 -0.036681514 -0.023646057 -0.039989002
0.021772256 -0.02427069 0.0037254114 -0.01223816 -0.010628747 -0.03143301 -0.024435936 -0.018484619
0.0023139021 -0.02295689 0.033400264 0.0023016208 -0.03146758 0.021689968 -0.006565699 0.020122817
0.005008628 0.04022353 -0.003322805 -0.0123792365 0.017629713 -0.0067179753 -0.028724656 -0.016032767
-0.023347627 0.018349484 -0.02121914 -0.036823526 -0.02538959 -0.02422539 0.033300575 -0.025578547
-0.006578516 0.022897882 0.028674226 0.02961051 0.0074047945 0.009256507 -0.012786245 -0.00047671795
-0.026150715 -0.020552834 0.007927681 0.0011521926 -0.025770053 0.024905777 -0.008831985 0.00048649177
0.022347867 -0.035472326 0.024072647 -0.03265133 0.037234485 0.0057227663 -0.020466184 -0.01284807
0.013719562 -0.01451845 0.030119842 -0.005933608 0.012704885 -0.012959644 0.013566296 0.021156019
-0.0079323705 0.019646104 -0.012695691 -0.009889981 0.0011944622 -0.039932474 -0.008272941 -0.026520029
-0.036169183 0.014686853 0.023770407 -0.006895583 0.010209925 0.013220007 0.025326565 -0.013120264
-0.0034145266 0.0010677129 -0.0041889697 -0.036579262 -0.012098312 -0.025081035 0.012325928 -0.017411223
0.0075162053 -0.019834086 -0.006343057 -0.0343425 0.019892087 -0.021422891 -0.023871092 -0.013693879
0.027167603 0.033077892 -0.03196409 0.008475199 -0.030362196 0.0117269615 -0.037288986 -0.03673994
-0.033572372 0.009855861 0.038878098 0.012845403 0.012589684 -0.026670758 -0.00029261684 -0.024343831
-0.024618743 0.019480545 -0.019594802 -0.03301347 -0.037805673 -0.01139387 0.010028209 0.04080663
0.006183699 -0.03611576 -0.012401536 -0.017061438 0.03695121 -0.027197506 0.029992267 -0.038802885

encoder.4.bias f4 [128]
00000000: 7bd4 2dbd 750d a2bc d93b 463d 0adf 52bc
00000010: 62e0 a5bc 020b aebb 8280 853d 460e ddbc
00000020: 4e92 413a f671 c63d 6bff 873d 5c76 363d
00000030: 1fbb 02bd e6d4 a7bc 1dbd 31bc 114d 973d
00000040: e201 abbb d9b7 20bd 0be7 4dbd 15cf e5bc
00000050: 8339 f13c 51be 46bb ce74 28bd dcbc 47bd
00000060: 89b3 913c b502 43bd a358 5f3c facf 933c
00000070: 4a5c 163c 5b68 8cbc 78b2 30bc 6085 e8bc
00000080: d08e 563d 7b7e ac3c 1642 853d 3984 033d
00000090: 6449 fd3c 0ffb bb3c 3e62 bfbc 20e6 df3c
000000a0: 86d6 533d 2ac9 35bd 099a 013c 4d9a 563d
000000b0: f0a7 0d3d 03f0 2c3c 2f81 41bd 1c12 7c3d
000000c0: 3e8c 533d 7aa5 bcbc 024a 2cbd 6390 8cbb
000000d0: e0c1 833d a1f9 d0bb ea38 963d 0278 5e3c
000000e0: 333c 02bd 56c1 943a 7b35 d0bc bf6d 113d
000000f0: ff0d 76bc cb70 69bc 5135 213d ab72 5bbd
00000100: be2b 8ebc d1e6 b2bc f48b 7a3d 3998 b13c
00000110: d2c2 7f3c 1c4c 1dbd c29b 393c e095 943d
00000120: 0ce7 17bd d726 ffbc b2b1 6cbb 01f6 0cbc
00000130: 9962 59bb caeb 6b3c e611 35bd 40da d2bc
00000140: fa98 023d e0c3 963c 9c0d 4d3d 2ef6 eabc
00000150: 2057 8f3c cc2f 04bd 65a9 26bd ad58 02bd
00000160: 06f9 433c 3eb4 b33b b225 803d f15e f2ba
00000170: e16e d9bb 3146 2c3c fe09 2a3c ec12 1c3d
00000180: bbee 5bbc 3f07 37bd 8234 2dbd cb91 e2bc
00000190: 30ed 9e3d 700e 2abd 7b58 0c3c 6209 333d
000001a0: c680 593d 9119 4a3a a17d 4b3d 6667 06bd
000001b0: 2fd3 843d 5c6e baba 1f99 913c cb73 803d
000001c0: 9ab2 57bb c8ff a43c 0474 0abd 0712 353d
000001d0: 3c57 fabc b416 863c fdbb 563d b5ff 33bd
000001e0: b8e6 a23d 0a3a 523c d38c 5cbc 8aeb a13c
000001f0: e05d 393d 1d5c f1bc c972 88bc 2321 6f3d
-0.042438965 -0.019781807 0.04839692 -0.0128705595 -0.020248596 -0.005311371 0.065186515 -0.026984345
0.0007384167 0.09689705 0.06640514 0.04454647 -0.031916734 -0.02048726 -0.010848311 0.07387746
-0.0052187303 -0.03923783 -0.050269168 -0.028052846 0.029446369 -0.003032584 -0.04112702 -0.048764095
0.017785804 -0.047610004 0.0136319725 0.018043507 0.009177277 -0.017139604 -0.010784738 -0.02838391
0.05238229 0.021056404 0.065067455 0.03210852 0.030918784 0.022946863 -0.023362275 0.027331412
0.051718257 -0.044381298 0.00791026 0.052393246 0.034583986 0.01055527 -0.04724234 0.061540708
0.051647417 -0.023028124 -0.042062767 -0.004289673 0.06433463 -0.0063774143 0.07335074 0.013578417
-0.03179569 0.0011349123 -0.025416126 0.035505053 -0.015017985 -0.014248083 0.039357487 -0.053576153
-0.017354842 -0.021838577 0.061168626 0.02167903 0.015610414 -0.03840266 0.011328639 0.07255149
-0.037085578 -0.03114645 -0.0036116657 -0.008603574 -0.003317034 0.014399478 -0.044206522 -0.025738835
0.03188417 0.018403947 0.050061807 -0.02868184 0.0174976 -0.032272145 -0.04068889 -0.03182285
0.011961227 0.005484133 0.0625719 -0.001849143 -0.0066355322 0.010514782 0.010378359 0.038103983
-0.013423617 -0.044684645 -0.042286403 -0.02765741 0.07760084 -0.041517675 0.008566017 0.04371012
0.053101324 0.0007709498 0.049680356 -0.032813452 0.064855926 -0.0014223563 0.01777321 0.06272086
-0.0032912851 0.020141497 -0.033802047 0.044206645 -0.030559175 0.016368248 0.052425373 -0.043945033
0.07954162 0.01283122 -0.0134613095 0.019765634 0.04525554 -0.029462868 -0.016656296 0.05838121

decoder.0.weight f4 [128, 64, 3, 3]
00000000: abf8 c83c f8ae b2bc cee7 c3bc f6d2 863b
00000010: c009 24bb 8a0e 1c3d 85c3 1cbc 3a27 c43b
00000020: 728b ef3a 3659 c2bc 1be1 e03c b625 a83c
00000030: c41a 06bd 4fc4 1abc 03c6 f13c b053 17bc
00000040: 40de 5f3b c675 b23c aac9 14bd 10be 20bd
00000050: d6e3 903b b96a f0bb 3123 d93c 0ac3 19bd
00000060: 66f7 1a3d 46fe 273d 0093 7c3a 6b0c d1bb
00000070: 0b07 b7bc 2002 1dbc 3bd5 3abc 5275 26bd
00000080: 4328 1bbd fb6e 15bc d096 1d3d d624 ae3b
00000090: b65a 18bc 4065 30bb 080e 80bc 1439 26bc
000000a0: c7e0 27bc 4aef ff3c d561 04bd 7222 4bbc
000000b0: 9cb0 54bc 1cbe 15bd 2689 f1bc 40ea 9f3c
000000c0: 86ad 783c a201 073d 8314 f43c d359 23bd
000000d0: cc6b 27bd aab3 253d bbaa 05bd 6bc4 00bd
000000e0: fb1d c93c 0bc5 c4bb 2bbb dbbb fbd5 093d
000000f0: 5617 e5bc 5eb7 8bbc 9397 d23c 60f3 d23c
00000100: ebf8 2abb 4403 113d 1bd8 eaba 5796 1bbb
00000110: fe16 11bd e81d c4bc eb52 793b fb6a 89bc
00000120: 8876 04bd a0ee 85bb a869 cc3c 6e6f b4bc
00000130: 8ea8 f33c 52b9 28bd 3380 dc3c c530 90bc
00000140: 99c6 043d a27a 01bd 8054 e23b d7e9 243d
00000150: 6c3e 88bc cfda 7d3b 85f9 623c 53a2 49bc
00000160: 73d0 17bd 18e0 f2bc a6f9 4ebc 6b4c 133b
00000170: 83fd ee3c 2342 08bc aab2 103d f607 aebb
00000180: 0014 be3a 243e 45bc 2477 e63b 6b63 1fbc
00000190: 707b 433c a6bd a1bc 63c0 0abd c690 133d
000001a0: 236c ec3c 333b 963c af44 ef3c 0030 1cbd
000001b0: 566a 563b 1621 05bd fe1b df3c 4074 d23b
000001c0: 36f6 03bd 3039 603c 3f18 0e3d 878b 15bd
000001d0: e0fc 3e3c 1630 b6bc 8b31 bbbb 3031 293d
000001e0: 2f2a 0bbd 202a aabb 0bca 1e3d 5001 053d
000001f0: 8497 2a3d bbeb 1a3c cbc7 ef3c d67f f0bc
00000200: e715 25bd b6c0 143d 0711 c43c cf46 72bb
00000210: ae6d 1a3c b3ce 403c 54a0 b9bc 2bd0 97bb
00000220: 5601 02bd abee 1c3c 887e b9bc 2156 113d
00000230: 1af3 59bc d8dd 043d 8b4a c3bb 28a8 183d
00000240: e0ae 9fbb 6053 fe3b 2ba7 9a3a 3351 04bd
00000250: 8ec9 9e3c 4757 2abd a62d 8a3c 964c 97bb
00000260: 969b 22bc 94c2 1f3d 606e 3dbc ae19 fabc
00000270: 56f4 163a c960 f8bb f816 c5bc ab44 02bc
00000280: 2064 e63b cd0c 33bb 289b 963c 7644 51bc
00000290: 886f e83c 8e54 a23c e550 17bc 5a1b 82bc
000002a0: e694 9cbc 176d 0abd fd8a 27bd 40a1 c93c
000002b0: c07b e63c 734a be3c c69b 99bc 7803 aabc
000002c0: f782 113d 0e31 bdbc 8022 b43c 1604 4ebb
000002d0: fca0 23bd 2629 edbc 00f8 5c39 c063 ea3b
000002e0: b29c c43c 6be6 433c 509e 23bd f693 b63c
000002f0: be3a e83c 1eab cf3c 4bb0 c3bc 1804 fabc
00000300: 390a 31bb 3ffc 00bd d8c6 27bd c1cf 5ebc
00000310: b59d ed3c 043f 273b de97 febc 4cb8 22bd
00000320: e0b9 1cbc e607 433c d15d 0c3c cede e1bc
00000330: d277 213d 7361 0f3c 269a 163c 8086 223b
00000340: 56ed d6bc 8bdf 323c 9a43 f0bc 1202 17bd
00000350: daad f1bc 8b12 50bc 8aa0 b6bb 98ce e0bc
00000360: a630 10bc cb79 d1bb 80d0 42bc 5737 a8bc
00000370: 9643 953c 0667 8e3c 4692 19bc a85a 03bd
00000380: 9bbf 493c 7691 f0bc 8bf8 c53b 9ee1 e8bc
00000390: 6c03 66bc d99b d93b 8486 3fbc 9974 9ebc
000003a0: 2db7 a33b 0c14 c53c 2e82 0cbd abd4 35ba
000003b0: 8671 cc3c d145 13bd 3624 41bc 0048 4bb9
000003c0: 8318 843c eb88 14bd bcad 29bd f044 2d3c
000003d0: eb43 debc 4ba5 b1bc f3ad 1b3d 0a79 dabc
000003e0: ebb6 a7bc e370 b83c e6d6 45bc 109e 7b3c
000003f0: abd4 98bb 3b0b f53c 30fb f83c c82d 87bc
0.024532637 -0.021811947 -0.023914244 0.004114504 -0.0025030226 0.038099803 -0.0095681 0.0059861215
0.0018275811 -0.02372418 0.027451089 0.020525794 -0.03274037 -0.009446218 0.029513365 -0.009236261
0.003415957 0.021784674 -0.036325134 -0.039243758 0.0044216914 -0.007336941 0.026506038 -0.03753952
0.037833594 0.04101398 0.0009634942 -0.006379654 -0.022342226 -0.009583026 -0.011403377 -0.04063923
-0.037880193 -0.009120698 0.038473904 0.00531445 -0.009298971 -0.0026915818 -0.01563169 -0.010145444
-0.010246462 0.031242032 -0.032319862 -0.012398349 -0.01298156 -0.036558256 -0.029484343 0.019520879
0.01517809 0.03296054 0.029794937 -0.039880585 -0.040874287 0.040454544 -0.032633524 -0.03143732
0.024550429 -0.0060049347 -0.006705662 0.033651333 -0.027965229 -0.01705521 0.025707042 0.025750816
-0.0026088308 0.035403505 -0.0017917188 -0.0023740733 -0.035422318 -0.023940042 0.0038043808 -0.016774645
-0.032339603 -0.004087284 0.024952725 -0.02202579 0.02974346 -0.04119236 0.026916599 -0.01760138
0.03241596 -0.031611092 0.006907046 0.04026207 -0.016631328 0.0038735156 0.013853435 -0.0123067675
-0.037064027 -0.029647872 -0.012632763 0.0022475969 0.029173618 -0.0083165495 0.035326637 -0.0053110076
0.001450181 -0.012038741 0.0070332456 -0.009728293 0.011931285 -0.019743752 -0.03387488 0.03602674
0.028860157 0.018338775 0.029207556 -0.038131714 0.003271719 -0.032502256 0.027235027 0.0064225495
-0.032217227 0.01368551 0.03469109 -0.036510017 0.01165697 -0.022239726 -0.005712693 0.041306674
-0.033975776 -0.00519301 0.038766902 0.032471955 0.041648403 0.009455617 0.029270073 -0.029357832
-0.04030409 0.036316596 0.0239339 -0.0036968475 0.009425564 0.011768031 -0.022659458 -0.00463297
-0.031739555 0.009578387 -0.022643343 0.03548253 -0.013302589 0.03243813 -0.005959814 0.03726974
-0.0048731416 0.007761404 0.0011799088 -0.032304 0.019383218 -0.04158714 0.01686747 -0.004617284
-0.00992479 0.039003924 -0.01156196 -0.030529823 0.0005758455 -0.007579897 -0.024058804 -0.007950942
0.007030979 -0.0027320862 0.018384531 -0.01277267 0.028373495 0.01981571 -0.009235595 -0.015882183
-0.019113969 -0.033795442 -0.040904034 0.024613023 0.02813518 0.02322886 -0.018751036 -0.020753607
0.03552529 -0.02309468 0.021989107 -0.003143554 -0.03994845 -0.028950285 0.00021073222 0.0071530044
0.0240005 0.011956791 -0.0399459 0.02228735 0.028348323 0.02535015 -0.023887774 -0.03051953
-0.002701415 -0.03149056 -0.040961117 -0.013599337 0.029005865 0.0025519738 -0.031078275 -0.03972654
-0.0095658 0.011903739 0.008567289 -0.027572062 0.03942091 0.008751261 0.009192025 0.0024799407
-0.026236217 0.010917555 -0.02932911 -0.03686721 -0.029501844 -0.0126997335 -0.005573337 -0.027442262
-0.008800661 -0.0063926927 -0.011890531 -0.0205342 0.018220704 0.01738311 -0.009373253 -0.03206888
0.012313749 -0.029366236 0.0060415915 -0.028427895 -0.014038902 0.006640893 -0.011689786 -0.019342707
0.0049962015 0.02405741 -0.034303837 -0.0006936292 0.024956476 -0.035955254 -0.0117884185 -0.0001938641
0.01612497 -0.036263388 -0.04142545 0.010575518 -0.027131995 -0.021685263 0.038007688 -0.026669044
-0.020472964 0.022514766 -0.012075162 0.015357509 -0.004664024 0.029912582 0.030393213 -0.016501322

decoder.0.bias f4 [64]
00000000: 7ec1 3cbc 71c2 8d3c d962 debc 8e19 c0bb
00000010: 78f0 893d 6c8b 80bd 478f a13b 2780 543d
00000020: a241 01bd 178f 803d 79bf 073d 555e f1bc
00000030: 11e6 fb3c a2da 77ba 267a 893d 9742 643d
00000040: 4418 30bd df10 1bbd b30f 093d 8139 0dbd
00000050: 25ab 1abd d014 8f3d cd6a 06bb 98f6 42bd
00000060: 710e a3bb 1124 643d 7cea 263c b69e 2c3c
00000070: 4c10 2fbd c565 3dbc 2049 98bc b9fd a4bc
00000080: df82 103d 9020 36bd 39c3 4bbd 282a 923d
00000090: 00ed 05bd 958b 363d 40f7 0bbd dbdf 4a3d
000000a0: 5f13 1abd 45e7 7e3b 7411 02bd 6e3f 233c
000000b0: be7f 0dbc d955 5e3d 1789 beba 7b42 4a3d
000000c0: afeb 163c d222 303b abcb b4bc ee94 f3bc
000000d0: d27a 973d 2173 a2bb d7ae 883d b665 5bbd
000000e0: 3e7c 62bb 191c 66bd 5d41 f4bc 2ad9 8e3d
000000f0: 2642 fb3b 1305 0ebd cd1d fbbc 0aa8 a7bc
-0.0115207415 0.017304631 -0.027146744 -0.0058624214 0.06735319 -0.062765926 0.00493041 0.051880028
-0.031556733 0.06277292 0.033141587 -0.029463926 0.030749353 -0.0009454881 0.06712751 0.055727568
-0.04299189 -0.037857886 0.033462238 -0.034478668 -0.037760872 0.069863915 -0.0020510436 -0.04759845
-0.004976087 0.055698458 0.010187741 0.0105358865 -0.04274015 -0.011559908 -0.018589556 -0.020140516
0.03528106 -0.044464648 -0.049746726 0.07136947 -0.032696724 0.04456671 -0.034171343 0.04952989
-0.03761613 0.0038895172 -0.031754926 0.009963853 -0.008636413 0.05428109 -0.0014536706 0.049379807
0.009211465 0.0026876223 -0.022069773 -0.029734101 0.07396473 -0.004957572 0.06673973 -0.053563796
-0.0034558917 -0.05617914 -0.029816324 0.069750145 0.0076677976 -0.034672808 -0.030653859 -0.02046587

decoder.2.weight f4 [64, 32, 3, 3]
00000000: 3e40 21bc 2059 0c3d 1c12 89bb 5685 61bd
00000010: 5586 4bbc 77ac 1e3c 6ab5 47bc b885 d63b
00000020: 933b febc be8b 18bc 2e09 923d 4e16 953d
00000030: ff2c 8a3b 9dd6 943d 9fb1 973d d246 1f3d
00000040: b34b 573d e533 cfbc c87e 503c 6286 5fbd
00000050: b071 f43c 5d29 253c 7982 edbb d823 943c
00000060: 143f 40bd b5c5 fa3c 9592 793c 2fdb 18bd
00000070: b6e7 83bd d194 85bc 814e 72bc 69fd 483d
00000080: 100b f53c 9333 403d 1d40 8d3d 3991 0ebc
00000090: a07b ddbc d3f5 8fba 4b3e f83b 1783 0c3d
000000a0: 9f76 c33d a758 a63d 8f8e b1bc 7ab5 6c3c
000000b0: 27be 833d 9601 56bd 5aa8 aabc efee d13c
000000c0: b25c 4b3a 5e19 11bd 4001 35bd 29bf 383b
000000d0: af1a 94bc 596e 5e3d f42b 843c d7c2 e73c
000000e0: 64e0 883d 3c52 fd3c 7df5 6c3c 2c3b 743d
000000f0: 92ea 12bd fa43 e9bc bcc8 90bc 5a73 87bc
00000100: 43c0 663d 42de 363d 397a 37bc 266f 92bc
00000110: 9a47 c0bc e47d 44bd 91ef 613b f03e aa3c
00000120: 9c16 533d 16b9 57bd b181 0dbd 6872 17bd
00000130: e89d 3fbd 1bd8 98bc 027d 3fbd 3d2d 79bd
00000140: 1e9d 2dbd 8d50 c3bc 2a78 82bd 64d0 533c
00000150: 7322 7ebd ef50 a1bd 1ed7 7fbd 5217 8dbb
00000160: 8b76 abbd 1437 41bd e811 05bc 2540 b2bc
00000170: 5095 18bc f1aa f93b a004 08bd e379 113d
00000180: 8035 67bc 3a53 c83c e81f 863d bee7 1c3d
00000190: 0317 c5bb 7bda 08bd 860a a93b 0932 5abd
000001a0: db47 153d afb0 3ebd 4a0c 7b3d 0c34 efbc
000001b0: 74a2 86bc 493e ad3c 8e59 03bd d7d2 3bbd
000001c0: 04b4 a73c de48 cebc d6e5 ae3c 1c4a 1c3d
000001d0: 46dc 3ebc 27b1 8d3c 0ace 9fbb a04c d7bc
000001e0: 0fa0 8a3a 5650 12bd e742 023d 87f8 0e3d
000001f0: 8673 41bd 1abb 163d 4976 c43c 196f 87bd
00000200: a779 14bc b182 33bd afa2 d43c 0d7b 563c
00000210: a28a 16bd 2c79 a3bd 4d9f 80bd 1c07 8abd
00000220: cb98 bcbb 532b 313d 8673 10bc b52b 803c
00000230: e27c 5bbd ccb8 833c 9111 fabb e17f 70bc
00000240: ea6f 49bb 36c7 843d 75e7 a4bc 1ac5 953c
00000250: 7e65 fabc 18a7 7bbd 00a2 2cbc 3421 bd3b
00000260: de0f 9e3b 22ae d7bc dc25 733d 11a9 1d3d
00000270: 70fa 21bd 5842 1c3d d768 a9bd 5e06 9ebc
00000280: 4ab4 033c a9c4 373d 85b9 843d ef0f bf3c
00000290: bd4e 963d 66f4 213d a7a6 473d 337b a03c
000002a0: 0a12 503d 020c 903d 27be 9a3c 5ae2 4fbd
000002b0: ec54 e4bc 10f6 82bd eca7 3dbb 834c 09be
000002c0: db73 c3bd 57a9 f13c 4745 b6bc ed74 debb
000002d0: 5923 b0b9 ab91 73bd 7b24 0ebd 8bf0 f4bc
000002e0: afcd bebc cec1 903c 2fa0 5bbd bbb6 1bbd
000002f0: 160d d7bc 9cf2 e0bc e0a9 b93c 6e48 36bb
00000300: ba0a 52bd 46bb c0bc a3d1 733d 25c7 6ebc
00000310: beb8 0bbd 22a5 05bc 2657 66bd e12f f73b
00000320: b431 3fbd 6ee5 f83c 64d0 1bbe 8608 e1bc
00000330: 2dd7 96bd 6bbe 46bd 43f0 d83c 9a6f c9bc
00000340: 7145 e2bc fbac 75bc 5047 293c 9cb8 4bbc
00000350: fa77 933d d782 283d 77dd 693d 760a f93c
00000360: eb7f 80bc ff58 4fbc 6a44 efbc 9f46 0a3d
00000370: 79de a93d e2bd 773d 3acb 883d f1f7 863c
00000380: 6288 223d f391 d8bc 16f4 45bd 7ecc 44bc
00000390: b99e 88bd bb95 09bd 9d2c f63c e99b 39bd
000003a0: e9eb c93b 8ab4 57bc 8d63 1fbc 9d51 5d3d
000003b0: 3124 5abd 4b61 9cbc 1196 13bc c06f 123d
000003c0: bc9d 79bd 600d c0bc 5fca 25bd 9740 213d
000003d0: 6168 993b 4c33 ad3d a9e9 1b3b 7717 a03d
000003e0: 221f fd3c 46be c7bc c8c4 6c3c e382 fd3c
000003f0: 9cdf a0bb 2804 cd3c d4ef b0bc 3893 4c3d
-0.009841977 0.034264684 -0.004183067 -0.0550588 -0.012422164 0.0096846735 -0.012189249 0.0065467022
-0.031034267 -0.009310661 0.07130657 0.07279645 0.0042167897 0.07267497 0.074069254 0.0388859
0.052562427 -0.0252933 0.0127255395 -0.054571517 0.029839367 0.010080663 -0.0072482196 0.018083498
-0.046935156 0.030611852 0.015232702 -0.037318405 -0.0644068 -0.016306313 -0.014789225 0.049069796
0.029912502 0.046924185 0.06896994 -0.008701616 -0.027036488 -0.0010983296 0.0075757853 0.034304705
0.095441096 0.08122378 -0.021674423 0.014447564 0.06432753 -0.052247606 -0.02083223 0.025626628
0.0007757648 -0.035424583 -0.044190645 0.0028190112 -0.01807913 0.054304454 0.01613424 0.028291149
0.06683424 0.030923001 0.014462826 0.059626743 -0.035868235 -0.028474797 -0.017673843 -0.016534496
0.0563357 0.044645555 -0.011198574 -0.017875265 -0.023471642 -0.04797162 0.0034475068 0.020781964
0.051535234 -0.052666746 -0.03454751 -0.03697434 -0.04678145 -0.018657735 -0.046750076 -0.06083416
-0.042386167 -0.02384212 -0.06370576 0.012928102 -0.062044572 -0.07876765 -0.06246101 -0.0043057585
-0.0837222 -0.047171667 -0.008121945 -0.021759102 -0.009312943 0.0076192548 -0.033207536 0.03551663
-0.0141118765 0.024453748 0.065490544 0.038306944 -0.006014706 -0.033411484 0.005158725 -0.053270373
0.03644548 -0.046555217 0.061291017 -0.029199623 -0.016434886 0.021147864 -0.032067828 -0.04585537
0.02047158 -0.02518123 0.021349829 0.038156614 -0.011649197 0.017296387 -0.0048768567 -0.026281655
0.0010576266 -0.035721146 0.031802084 0.034904983 -0.047229312 0.036799528 0.023982184 -0.06612987
-0.009062207 -0.04382581 0.02595648 0.013090861 -0.036753304 -0.07982096 -0.06280384 -0.06739637
-0.005755519 0.043254208 -0.008816605 0.015645841 -0.053585894 0.016079329 -0.0076314886 -0.014678926
-0.0030736872 0.06483309 -0.020129899 0.018282462 -0.030565973 -0.06143865 -0.010536671 0.0057717804
0.004823669 -0.02632815 0.059362277 0.038491312 -0.039545476 0.038149208 -0.0827195 -0.019290145
0.00803859 0.044865284 0.064806975 0.023323027 0.07339237 0.039539717 0.048742916 0.019589996
0.050798453 0.0703354 0.0188895 -0.050752975 -0.027872525 -0.06394589 -0.00289392 -0.13408093
-0.09543582 0.029499693 -0.02224983 -0.006788841 -0.00033595672 -0.05946509 -0.03470276 -0.029899856
-0.023291437 0.017670538 -0.05361956 -0.038016062 -0.026251357 -0.027459435 0.02266401 -0.0027814168
-0.05127976 -0.023526799 0.059526097 -0.014573847 -0.03411173 -0.0081570465 -0.056235455 0.0075435494
-0.04667826 0.030382838 -0.15216213 -0.027469885 -0.0736526 -0.04852144 0.026481753 -0.024589349
-0.027621003 -0.014994855 0.010331944 -0.012434151 0.07200618 0.041140404 0.05709597 0.030400496
-0.015685996 -0.012655496 -0.029207427 0.033758756 0.082943864 0.06048382 0.066793874 0.01647565
0.039680846 -0.026436782 -0.04832848 -0.012011645 -0.06670899 -0.03359006 0.03005057 -0.045314703
0.006162156 -0.013165602 -0.009728325 0.05403291 -0.05325717 -0.019089362 -0.009007947 0.035751104
-0.060941443 -0.023443878 -0.0404762 0.03936824 0.0046816324 0.0845705 0.0023790395 0.078169756
0.030898634 -0.024382722 0.014451213 0.0309462 -0.004909469 0.025026396 -0.021598734 0.049945086

decoder.2.bias f4 [32]
00000000: 9403 09bc 9f63 f23c c496 85bc c611 8a3d
00000010: b6ac 633c b578 b43d 6678 103c 9266 b5bc
00000020: f453 343d 7b1b 813d 1767 b5ba 5969 84bb
00000030: 6a7d 81bc b559 5e3c 7a93 343d 46ba 99bd
00000040: a802 9e3d 92b4 debc 4080 e0bc f378 893d
00000050: 5a8e a8ba 8cff d8bc 5b15 16bd ea80 173c
00000060: c170 fb3c 1cbb 71bd a612 563d d177 1f3d
00000070: 386b 0a3c 9281 c6bc c668 17bd 9283 6e3b
-0.0083626695 0.029588519 -0.016307242 0.06741671 0.013896158 0.088120855 0.008817768 -0.022143636
0.044025376 0.063040696 -0.0013839927 -0.0040408787 -0.015806872 0.0135711925 0.044085957 -0.07506232
0.077153504 -0.027185712 -0.027404904 0.06712522 -0.0012859807 -0.026489042 -0.03664146 0.009247044
0.030693414 -0.059016332 0.05226388 0.038932625 0.0084484145 -0.024231706 -0.036965154 0.003639434

decoder.4.weight f4 [32, 3, 3, 3]
00000000: 2006 4b3e 7a95 1d3e 3b6b b73d 3573 383e
00000010: 2b0a 373e c124 19be c3a4 f9bd 04e7 28bd
00000020: e31a c03d 3725 21be 750d cbbc 7bce 1d3e
00000030: 1302 10be edf5 863d 02dd 1abd ae21 b3bd
00000040: 891f 843d 6f2c 513d edd7 283e d80d c4bd
00000050: 12e9 d63c 0f7a c9bd 47eb 50bd 3a58 a53c
00000060: 97dc 413e 5962 f4bd ce31 a2bd 0917 fabd
00000070: 5828 783d 88c6 803c e2b6 45bd b57a b5bd
00000080: ae7a 333e eb78 fc3d f305 38be 1006 f23c
00000090: 4d74 0f3e 1ce7 e93d 6912 393d c916 153e
000000a0: 68d9 633e 57db 043e cf4c 493d 6cae ff3d
000000b0: 09bc fabd e81d 3f3c 6cbb e23d c385 d53d
000000c0: 3643 7fbd dc7a 68bd 5246 bc3d b36c 82bd
000000d0: 76fb 2f3e 3e03 133e 8ab5 3d3d 3dc6 293e
000000e0: 49ed b7bd 875f cf3d 9353 4c3e 42eb 26bd
000000f0: ec06 643d 0bf9 ff3c 2a13 e5bd e9c0 c03d
00000100: e524 fe39 c5eb b03d c6b2 353e 6d86 0bbe
00000110: a680 07bc 3390 243e 900d 823d ced6 033d
00000120: f675 24bd e1d8 df3d 88e6 95bd 065c e0bd
00000130: 7f7a 413e 8077 393e 225d 2d3e 74d6 8bbc
00000140: 8c57 6fbd 03a4 9dbd 4468 023e 6b2b 31bd
00000150: 5c7f 39bd 5b95 e8bd 2c08 383e 481c 47bd
00000160: 0467 8b3d 046a c9bb facf 7fbd 95c4 673d
00000170: 79e6 72bb e3ec 9e3d f23e 2abe 7e3e 2ebe
00000180: 7ee6 10be a0de 42be a0cc 493d 316b 58bc
00000190: 533a 28be b67c d43d e5cb 33be 39f6 7bbe
000001a0: 18cc 29be d7c3 523d 2d39 2e3d 9d6d 5ebe
000001b0: a3df 3cbe d7d0 b03d ffb5 683d 4f56 04be
000001c0: 5a82 a23c adce c1bd be14 0c3b e811 0c3d
000001d0: da95 583d 6af4 2ebe 48cb 65bd 52bf bc3d
000001e0: 8092 7dbd 2ebb f53d 7d06 893d 0db6 053e
000001f0: 4b89 9c3b f995 803d 9e9e 103d d664 183e
00000200: a707 ecbd b1ef 063e 3a99 063e b1b8 f43c
00000210: 702e c73d 7a10 f63c 7457 d83d b804 34be
00000220: 30d7 bd3d a90f 37be 9b12 29be 54a2 24be
00000230: e585 043d 9a7b 07bc e5ab 0f3e 32b2 193d
00000240: 9704 1abe 70cc 0dbe 4daf 54be ac20 35bd
00000250: dbfd 4dbe 21f7 0fbd 6b80 07be 9d3a cebd
00000260: a6e2 0abe cb3e 37be 738b 103d 061f 093d
00000270: a4be 0cbe 92a3 14be 6cb1 4dbd 8804 97bd
00000280: ce6e 65be d9cf c6bc 2e30 a6bd 2c6a 303e
00000290: bdf6 5a3d 71e0 ed3d a1bb 3f3e 710c 0e3e
000002a0: 6148 253e 7c00 21be d952 143c 1a09 d03d
000002b0: 0b4d f0bd 463a 2a3b 6a99 0bbc 7024 813d
000002c0: 9ad5 aabd 28e4 a33c cbb9 1b3e 07e1 f93d
000002d0: f999 e1bd 117e 8cbd a047 e13d 314d f5bd
000002e0: a299 113d 46e1 563e 42f5 053e f7d3 ebbd
000002f0: c021 1b3e a6ea 623c 6ee1 d33d ce84 cc3c
00000300: fe87 3d3e e45b b73c 7730 26be 6dd4 063e
00000310: 42ec 08be 966d 99bd 0592 debd 9072 7b3d
00000320: e1dc 3a3d 3fb3 333e 5692 d13c 6c3f 273c
00000330: 1157 e93d 1dce 343e dc97 07be ed38 3c3e
00000340: dafe 6d3d ef8c e1bd 3d78 1f3e 27a1 063d
00000350: 12d2 5f3b f345 b23d 0ddb 21bd 8614 573e
00000360: 8744 36bd 4446 73be f266 5abe 1980 0cbe
00000370: d4ad df3a 2b1c e6bc 6ddc dc3d fa83 71be
00000380: a390 2a3a 70cc 0f3e b9d0 35be 3e08 7fbd
00000390: 2810 cabd 27b9 79be 71ee 24be 0ae5 273d
000003a0: d939 f73d 215f 493c 13b6 203e b826 2bbe
000003b0: 918e ae3d 8d9a 11be b2e9 fcbd 1e79 02bd
000003c0: 1653 cebd d860 5cbe d7e4 f23d 1fc7 e53d
000003d0: b1ff edbd 25f2 033d 6254 13be b3ae 40be
000003e0: b280 1abe 077f dcbd 6f1e 38be f557 45bd
000003f0: 8d9b ee3b 2051 92bc c17f 05bb 4497 43be
0.19826555 0.15389052 0.089559995 0.18012698 0.17874973 -0.14955427 -0.12189629 -0.04123594
0.09380128 -0.15736853 -0.02478669 0.15410797 -0.14063291 0.06589875 -0.037808426 -0.08746658
0.06451327 0.051067766 0.16488619 -0.09572953 0.026234183 -0.09837734 -0.051005628 0.020183671
0.18931805 -0.11932821 -0.07919656 -0.12211425 0.06058535 0.015719667 -0.048270114 -0.08861295
0.17527267 0.12327751 -0.1797102 0.029543906 0.14009209 0.11421034 0.045183573 0.14559473
0.22250903 0.12974297 0.049145516 0.1248444 -0.12242896 0.011664845 0.11070904 0.10425904
-0.062319957 -0.056757793 0.091931 -0.06368389 0.17185768 0.14356706 0.046315707 0.16579528
-0.089808054 0.10125642 0.19953756 -0.040751703 0.055670664 0.031246683 -0.11185296 0.09411795
0.00048474144 0.086387195 0.17743978 -0.13625498 -0.008270418 0.16070633 0.06350243 0.032187276
-0.04015156 0.10930038 -0.07319361 -0.10955052 0.18894385 0.18111992 0.16930059 -0.017070033
-0.0584331 -0.076972984 0.12735087 -0.043254297 -0.045287475 -0.11356612 0.17971867 -0.048610955
0.06806758 -0.0061466713 -0.0624542 0.05658396 -0.0037063642 0.07760026 -0.16625574 -0.17016026
-0.14150426 -0.19030237 0.04926741 -0.01320915 -0.16428499 0.10375349 -0.17558248 -0.24605645
-0.16581762 0.0514563 0.042534996 -0.21721502 -0.18444686 0.08633583 0.05681419 -0.12923549
0.019837547 -0.094632484 0.0021374668 0.034196764 0.052877285 -0.17085424 -0.056102067 0.09216179
-0.06190729 0.11998592 0.06690691 0.13057728 0.004777109 0.06278605 0.03530752 0.14882216
-0.11524897 0.13177373 0.13144389 0.029873224 0.09725654 0.030037154 0.10563555 -0.17579925
0.092695594 -0.17877068 -0.16511004 -0.16077548 0.032354254 -0.008269215 0.14030416 0.037523456
-0.15040813 -0.13847518 -0.20769997 -0.04422061 -0.2011637 -0.03514779 -0.13232581 -0.10069773
-0.13563022 -0.17895047 0.03528924 0.033476852 -0.13744599 -0.14515522 -0.05021803 -0.07373911
-0.2240555 -0.024269031 -0.08114658 0.17228001 0.053457964 0.116150744 0.18723918 0.13871934
0.16140892 -0.15722841 0.009052956 0.10157986 -0.11733445 0.0025974675 -0.0085204635 0.06305778
-0.083415225 0.020006254 0.15207593 0.12201124 -0.11015696 -0.06859983 0.109999895 -0.11977614
0.035546906 0.20984372 0.1308184 -0.115150385 0.15149593 0.01384989 0.10345732 0.02496567
0.18508908 0.022382684 -0.16229425 0.13166972 -0.13371375 -0.07491605 -0.10867695 0.061388552
0.045620803 0.17548846 0.025582474 0.010207992 0.1139356 0.17656751 -0.13241524 0.1838109
0.058104374 -0.11013209 0.15573211 0.03286853 0.0034152311 0.08704748 -0.039515544 0.21003923
-0.044498947 -0.23757273 -0.21328333 -0.1372074 0.0017065355 -0.028089603 0.107842304 -0.23585501
0.0006506538 0.1404283 -0.17755403 -0.06226372 -0.09866363 -0.24387036 -0.16106583 0.040989913
0.120715804 0.012290747 0.15694456 -0.16713989 0.08523286 -0.14219113 -0.12349261 -0.031853788
-0.10074441 -0.21521318 0.11860054 0.1121962 -0.11621035 0.03221335 -0.14387658 -0.18816642
-0.15088156 -0.10766416 -0.1798036 -0.048179585 0.0072817267 -0.017860949 -0.0020370337 -0.19100672

decoder.4.bias f4 [3]
00000000: 5ba5 c33d 421d 3fbc 0a91 07be
0.095530234 -0.01166469 -0.13238922
