Models_dump/model_carpet_patch.pth (torch, 750306 bytes, 12 tensors)

encoder.0.weight f4 [32, 3, 3, 3]
00000000: 767e c53d ba8f 14be eedf 28be dccb 29be
00000010: 46df eb3d 55d3 e6bd 18a9 253d 4c1d 1dbe
00000020: f091 4ebc 09cd 093e b922 f1bd a957 333e
00000030: 586f 99bc ac89 40be 585a 31be f3d9 9dbd
00000040: d4e1 783d 03b5 393e 6f2e 0b3e fe23 be3d
00000050: b6a8 b43d 4b0a 9dbd b0eb 74bc 4c2e 273d
00000060: f80b 51bd c869 a8bc b841 87bc d807 fa3c
00000070: 8830 473d a6b9 ea3d 30d9 46bd 54f5 2bbd
00000080: 50a3 7f3c 695e bcbd 4a6a 8f3d d86a ebbc
00000090: 02ab 8d3d fa40 c63d a818 cbbc b51b 173e
000000a0: 21c2 0c3e 5b0d 0bbe 4ca2 033d 3c7b 63bd
000000b0: b25c 0cbe ebab 3d3e b6b3 b53d 6225 ec3d
000000c0: 56d1 8b3d cded acbd 7185 a8bd a308 8dbd
000000d0: 0e01 913d 6ac5 b83d 6099 00be 34a9 eebd
000000e0: 759e 44be 0009 ca3c b416 40be b5d8 343e
000000f0: e2cf 18be 3807 ba3c d591 263e caf7 a13d
00000100: b781 b5bd f73a 3abe 4ba2 413e 1af7 cdbd
00000110: 0057 c8bd 0291 35be 3a69 823d fbd1 8ebd
00000120: 068b a03d 6048 64bd 5d32 eabd f635 d23d
00000130: e2f2 9a3d 6f25 bcbd de03 ebbd 63b0 2d3e
00000140: ec38 463d bda7 c0bd 28d1 133d 0fbb 013e
00000150: 40ec e93c 0e93 a93d f34e 0f3e 803a 8bbb
00000160: b148 40be 2a5f 2cbe c570 a0bd fc74 4f3d
00000170: 7a52 d3bd e964 0b3e 427f dd3d 8c05 81bd
00000180: e22a f83d f436 92bd be9c f03d 541f a0bd
00000190: c323 0b3e 0608 943d a819 af3c dcd0 0dbe
000001a0: 4ed2 8f3d 6e5b 43be 152e 373e c05f 963b
000001b0: a2fe b93d 1aff c33d 556d 243e f9c8 143e
000001c0: ef76 e3bd 694e 35be 2adc ecbd 2388 08be
000001d0: e26f 913d 2468 54bd 6a2e 82bd 40d9 0ebb
000001e0: 4212 b83d abdf 3a3e 84bd 76bd 6094 b4bc
000001f0: f009 533c 88d5 0bbe 5ca9 16bd 3c39 e0bd
00000200: 036a 293e 50a2 2f3d 10bc b0bc 0a41 8cbd
00000210: 25b1 f9bd 1f76 013e 48c7 88bc 4c0e 01bd
00000220: e010 08be abc9 1ebe 34a1 6cbd e4ca 7e3d
00000230: dc96 19be 1a7f 03be 3290 dd3d f889 993c
00000240: 89f0 3cbe de32 a13d cfdc 3dbe a2e8 04be
00000250: 12f6 9f3d 7cdd 4ebd 1235 03be 818a 3fbe
00000260: 8f55 0a3e 1d24 163e e425 503d 8a91 b93d
00000270: 2bc1 2f3e dc06 61bd c066 003b 0abf e83d
00000280: 251e 9abd 8ff4 e3bd 6be4 36be 492a 2c3e
00000290: 6cfe 533d 4269 c43d 3b61 ddbd f319 223e
000002a0: 1caf 0fbd 70a4 17bc f973 203e 8c1c 88bd
000002b0: 4f8c 213e 0644 e2bd c825 fabd a859 a13c
000002c0: f3c2 02be 22cf 923d 0828 653d 278c 1d3e
000002d0: 6689 a8bd b811 cabc 201e 803b 7dd0 44be
000002e0: 54ff a2bd 8bda 2f3e 61bb 3fbe 94cd 34be
000002f0: 4034 3cbc d10a f5bd e39d 323e 2e8e c53d
00000300: 8402 3fbd 108d 8dbc 7e82 bb3d 4cf8 60bd
00000310: d84b ebbd 10a6 7c3c a719 44be 2654 1ebe
00000320: 5f34 1a3e 181f 4abd 1a5e 8c3d 9c35 71bd
00000330: f240 e03d 14e2 0cbe 8ffb 0b3e 3b8d 243e
00000340: 4a28 fdbd 5f3c 3bbe 6d52 153e 08fc 403d
00000350: 98df 7cbd 851e bebd dced 3f3d a5a5 3e3e
00000360: 4c37 553d 8054 1a3b 52c1 f7bd 7cc7 5e3d
00000370: 1833 67bd 7889 a7bc 2413 1bbd 7a20 81bd
00000380: 6018 c6bb a0bc acbb a8a6 47bd a0b8 36bc
00000390: fc02 96bd 40d0 27bc 5665 a8bd 8337 91bd
000003a0: bee5 9ebd e740 423e 9bb6 b2bd 3876 bcbc
000003b0: 409b f1bc 80f7 153b 9210 f93d f9ef 163e
000003c0: 8421 1bbe ae0d 8f3d 4eee 8b3d b1cc d2bd
000003d0: 80f7 f73a 5000 a1bd 7f2b 42be b78e 29be
000003e0: e240 34be ba54 a13d 7c11 08bd 60b8 70bd
000003f0: eee4 2fbe e98b 94bd 0d02 263e 8b81 233e
0.09643261 -0.14507952 -0.16491672 -0.16581672 0.115171954 -0.11270777 0.040444463 -0.15343207
-0.012608036 0.13457121 -0.11774201 0.17513908 -0.01872985 -0.18802518 -0.1731962 -0.07707586
0.06076224 0.18135457 0.13591932 0.09284209 0.088212416 -0.07667979 -0.01494877 0.040815637
-0.051036805 -0.020558253 -0.01651083 0.030521318 0.048630267 0.11461191 -0.04854697 -0.04198201
0.015602902 -0.09197695 0.07002695 -0.02873747 0.06917383 0.09680362 -0.02479203 0.14756663
0.1374593 -0.13579313 0.0321372 -0.055537447 -0.13707235 0.18522613 0.08872168 0.11530568
0.06827037 -0.084437944 -0.08228577 -0.06886413 0.07080279 0.09022029 -0.12558508 -0.11653367
-0.19201072 0.024662495 -0.1875866 0.17660792 -0.14923051 0.02270852 0.16266568 0.0790859
-0.08862632 -0.18186556 0.18909566 -0.100568965 -0.09782219 -0.17731097 0.063677266 -0.06973644
0.078390166 -0.055733085 -0.11435387 0.102641985 0.075658575 -0.091868274 -0.11475347 0.16961817
0.04839413 -0.094069935 0.03608814 0.12669013 0.028555036 0.082800016 0.1399496 -0.004248917
-0.1877773 -0.16833177 -0.07834009 0.050648674 -0.103184655 0.13612713 0.10815288 -0.06299886
0.12117554 -0.07139388 0.11748646 -0.07818475 0.13587861 0.07228093 0.021374539 -0.13849205
0.07022534 -0.19077846 0.17888673 0.004589051 0.090817705 0.09570141 0.16057332 0.1452979
-0.11106669 -0.17705692 -0.115654305 -0.13333182 0.07101418 -0.05185713 -0.06356509 -0.0021796972
0.089878574 0.18249385 -0.06023933 -0.022043407 0.012880787 -0.13655674 -0.036782607 -0.109484166
0.16544347 0.042879403 -0.02157405 -0.06848343 -0.12191991 0.12642716 -0.016696587 -0.031507775
-0.13287687 -0.15506618 -0.057770923 0.06220521 -0.14998955 -0.12841454 0.10818519 0.018742546
-0.18451132 0.0787103 -0.18541263 -0.12979367 0.07810606 -0.050504193 -0.12813213 -0.18705179
0.135092 0.14662214 0.050817385 0.090609625 0.17163531 -0.054938182 0.0019592494 0.11364563
-0.07525281 -0.1113063 -0.17860572 0.16813006 0.051756307 0.09590389 -0.10809561 0.15830211
-0.035079107 -0.009255514 0.1566924 -0.0664607 0.1577618 -0.11048131 -0.122142375 0.019696072
-0.1276968 0.07168414 0.05594638 0.15385495 -0.08229332 -0.024666652 0.003909841 -0.19220157
-0.07958856 0.17173211 -0.18723823 -0.17656547 -0.011487067 -0.11964954 0.17443042 0.09646259
-0.04663326 -0.017279178 0.09155749 -0.054924294 -0.114890754 0.015420452 -0.1915041 -0.15461788
0.1505904 -0.04934606 0.06853886 -0.058889017 0.10949887 -0.13758117 0.1367018 0.160695
-0.123612 -0.18284748 0.14582224 0.047115356 -0.061736673 -0.09283165 0.0468577 0.18617876
0.05205469 0.00235489 -0.1209742 0.054389462 -0.05644521 -0.020451292 -0.03786005 -0.063050225
-0.006045386 -0.0052715093 -0.04874292 -0.0111524165 -0.07324788 -0.010242522 -0.08222453 -0.07090666
-0.077586636 0.18970071 -0.087262355 -0.02300559 -0.029492974 0.0022883117 0.12161364 0.1473998
-0.15149504 0.06985031 0.068325624 -0.10292948 0.0018918365 -0.07861388 -0.18961905 -0.16558348
-0.17602876 0.078774884 -0.0332198 -0.058769584 -0.17177173 -0.07253248 0.1621172 0.15967385

encoder.0.bias f4 [32]
00000000: 2093 56bc f01b e43c 775b 35be 0678 ea3d
00000010: 6f5c 33be f8f8 b03c b6f5 eb3d 5bd6 113e
00000020: 2c7c 8ebd 9126 0d3e 17fe 413e 2c13 4b3d
00000030: 6088 9dbd 7c3f 753d 5d9a 033e 0ce9 1ebe
00000040: b89a 8bbc 2ae2 25be 1002 b8bc 4d69 1e3e
00000050: d715 2f3e b33e 1bbe cf65 3abe e2f2 b43d
00000060: d95f 3cbe e477 323d 324f 04be 3b23 383e
00000070: 400f 14be 40ad c83b ff42 423e 1a28 0ebe
-0.013096601 0.027845353 -0.17710672 0.11448674 -0.1751573 0.021603093 0.11521475 0.14241926
-0.06957278 0.13784243 0.18944584 0.04957883 -0.07692027 0.059874997 0.12851854 -0.15518588
-0.01704155 -0.16199556 -0.022461921 0.15469857 0.17098175 -0.15160637 -0.182029 0.08835389
-0.18395938 0.043571368 -0.12920836 0.1798219 -0.14458942 0.0061241686 0.1897087 -0.13882485

encoder.2.weight f4 [64, 32, 3, 3]
00000000: fea1 30bd 8378 683d a599 59bd 924d 9d3c
00000010: cfea 083d 803f fbb9 0001 2c39 bc21 053c
00000020: 54aa 11bd 0068 ee37 3017 07bd b0dd 44bd
00000030: 1e8f d1bc f74d 473d 4cac 2d3c dc8c 25bc
00000040: 8866 943b 029c e7bc 8028 1bba c07f f03a
00000050: 1448 27bd 8960 6a3d 7869 e23b 94d1 12bd
00000060: 0255 5fbd 886c 6ebd 34a3 01bd 804b 72bb
00000070: 7c84 2b3c ff47 223d dabe 3ebd d9c8 04bd
00000080: 4385 213d c72c 573d cafd fa3c fe89 3dbd
00000090: 7624 d43c 7020 41bb 3b16 623d d802 99bc
000000a0: 923f bfbc 8c9b 58bc 9327 683d 80ae e5ba
000000b0: 8b88 4fbd 4fbd 2c3d 224d bf3c c7c9 163d
000000c0: 5a72 9b3c 868c 953c 88cf d5bb 5044 7e3b
000000d0: 343c 323c 140a 4f3c 3c40 53bc 4821 e0bc
000000e0: 32d3 50bd 555c 633d eae6 1abd 3208 e53c
000000f0: a0fb 2fbc 3f19 123d 98f2 a4bc 065f a4bc
00000100: 0ce9 363c e897 a6bc 6651 b7bc 161e 893c
00000110: 003c bcb8 f0be 4fbd 88bd f33b 9622 953c
00000120: 1e50 c63c 0331 63bd f9b9 1bbd 3249 e93c
00000130: e8c2 863b 9c66 d4bc f523 4fbd fe55 8c3c
00000140: 72ae e4bc 94f5 29bc 058e 603d 0729 573d
00000150: 0de7 1c3d d191 3abd be6a 9e3c 8e6e 1bbd
00000160: a3c6 49bd 40be b9bc aced 183c 8666 ef3c
00000170: 026b f03c 9a63 4abd 1d9c 1d3d 247d 313c
00000180: 7c68 20bd 80e0 96ba a85e 18bd 32a0 6cbd
00000190: e2bd c9bc 4a21 d53c 10e8 90bc b1cc 383d
000001a0: 9c01 77bc a0f5 2fbb 757d 6c3d 6c34 423c
000001b0: 9711 0b3d c045 98bc bc71 6dbd 8b38 3abd
000001c0: fa8d b83c ea2a e03c 50be 7fbc f02a 7dbc
000001d0: c6f6 28bd 69ae 243d 3467 43bd 9399 2a3d
000001e0: eaf1 f43c 2cb2 693c 0b6c 6f3d 9dc9 2c3d
000001f0: 2832 06bd 06a6 f03c 0187 243d 0038 01b8
00000200: 720c cd3c 009a 88ba 14c2 423c fc83 6a3c
00000210: 5445 4fbc 7aea d83c 036f 253d 4231 ad3c
00000220: 10d4 f8bb bc53 78bc eb07 35bd 46a5 d33c
00000230: fcbb 82bc cec4 6abd a087 063b a0f8 13bb
00000240: cadf 3bbd a007 08bd df74 43bd b2ec fa3c
00000250: 705b 3fbd c4d3 84bc a0da 7dbc ac92 56bc
00000260: e972 2a3d 9e7a cd3c 8c5d 033c bb06 453d
00000270: 2687 953c 0114 18bd d32e 483d f63f c7bc
00000280: 7846 19bc 643e 71bd 8815 913b eee6 86bc
00000290: 541f 1a3c b990 303d 2eeb 18bd 277b 393d
000002a0: c10e 3d3d 7577 083d be31 ea3c 1af5 16bd
000002b0: 01ea 4c3d 86b2 2cbd 20f9 a9bb 3177 423d
000002c0: c2fa 8f3c d500 483d 6eb9 1cbd 06a7 e63c
000002d0: 08da 28bc a68b bd3c f0ad 3dbb a2ef fc3c
000002e0: 7ef7 36bd e1fd 5abd 0cb2 083c b369 403d
000002f0: 8a22 71bd 403b 36bb 3848 0bbd a1f7 413d
00000300: cdbb 33bd 26f9 50bd cd46 1c3d 975e 2c3d
00000310: 9f95 6a3d b421 443c 9403 97bc 78fd f13b
00000320: a87c 41bc 5eb4 d03c 2252 d73c 5a88 45bd
00000330: 9442 69bc 62c6 a83c f21b f3bc 3c2b 4cbc
00000340: b987 3abd f443 1ebc c754 663d f408 debc
00000350: 4254 fc3c d206 34bd 64de 1bbc 0810 e1bc
00000360: f56c 033d 7e73 993c 882d 53bc e841 68bc
00000370: 6160 083d e45b 06bc d52a 363d 9d72 06bd
00000380: c8cd 9fbb 26d1 c5bc 4ce6 9bbc 4cd3 3ebc
00000390: a10a 5f3d ac0f 763c f27e c33c 5cd2 90bc
000003a0: e070 02bc 2088 1fbb 3556 26bd 0392 243d
000003b0: 2296 8e3c ac0b fdbc 88a6 9c3b b31d 173d
000003c0: 4a62 3dbd 3277 d4bc 0420 87bc 497c 623d
000003d0: a07f efba bd37 643d c390 0b3d c0b3 003b
000003e0: 209a 86bc 2690 c73c 44a6 363c 6fd2 1b3d
000003f0: a7cf 083d 2e26 b23c 0b78 653d 05df 243d
-0.043123238 0.056755554 -0.053125042 0.019202027 0.033427056 -0.00047921762 0.00016403571 0.008125719
-0.03556283 2.842024e-05 -0.032981098 -0.04806298 -0.025580939 0.048658337 0.010600161 -0.010104384
0.0045288242 -0.028272633 -0.0005918816 0.0018348619 -0.040840223 0.05722097 0.0069095455 -0.0358444
-0.05452443 -0.058208972 -0.031649783 -0.003697127 0.010468598 0.039619442 -0.04656873 -0.032418106
0.03943373 0.052532937 0.030638594 -0.046274178 0.025896292 -0.0029468797 0.055196982 -0.018678114
-0.023345742 -0.013220679 0.056678366 -0.0017523319 -0.050667327 0.042172726 0.02335221 0.036813524
0.018975426 0.018255483 -0.006524984 0.0038798042 0.010878611 0.01263668 -0.012893733 -0.02735962
-0.05098266 0.055507977 -0.037817873 0.02795801 -0.010741144 0.035668608 -0.020135209 -0.020064842
0.011163961 -0.020336106 -0.022377681 0.016737979 -8.9757144e-05 -0.0507192 0.0074383654 0.018204968
0.024208125 -0.055466663 -0.038019154 0.028477285 0.00411259 -0.025927834 -0.0505714 0.017130848
-0.027915213 -0.010373492 0.05482294 0.05252936 0.038306285 -0.045549218 0.019338008 -0.03794723
-0.0492617 -0.022673726 0.009334009 0.029223692 0.0293479 -0.049411394 0.03847896 0.0108330585
-0.039162144 -0.0011510998 -0.037199646 -0.05776996 -0.024626676 0.02601685 -0.017688781 0.045117084
-0.015076067 -0.0026849285 0.057736833 0.011853319 0.03395232 -0.018587947 -0.057969794 -0.04546408
0.022528637 0.027364213 -0.015609339 -0.015452132 -0.041250966 0.040205393 -0.047705844 0.041650366
0.02990051 0.014263671 0.058452647 0.04218446 -0.032762676 0.029376041 0.040167812 -3.080815e-05
0.025030348 -0.0010421872 0.011887092 0.014313694 -0.012650806 0.026478995 0.040389072 0.021141652
-0.007593639 -0.015156683 -0.044197004 0.025835644 -0.015958779 -0.057316594 0.0020527616 -0.0022578612
-0.04586772 -0.033210397 -0.04771888 0.030630443 -0.04671806 -0.016214259 -0.015494019 -0.013096493
0.041613493 0.025082882 0.008017909 0.04810212 0.01825292 -0.037128452 0.04887278 -0.024322491
-0.00935518 -0.05889739 0.0044276156 -0.016467538 0.009406883 0.04310677 -0.03733366 0.045283463
0.04615665 0.033317048 0.028588172 -0.03685484 0.05002785 -0.04216244 -0.0051871687 0.04747695
0.017575625 0.04882892 -0.038262777 0.028155815 -0.010305889 0.023137879 -0.0028942786 0.030875985
-0.04466962 -0.053464774 0.008343231 0.046975803 -0.05887083 -0.0027806312 -0.03400442 0.047355298
-0.043880273 -0.051018856 0.03815346 0.042082395 0.057271596 0.011970926 -0.018434323 0.007384952
-0.0118095055 0.02547663 0.026284281 -0.048225738 -0.014237065 0.020602409 -0.029676411 -0.01246148
-0.04553959 -0.009659756 0.056233194 -0.027103879 0.030801896 -0.043951817 -0.009513471 -0.027473465
0.03208633 0.018731829 -0.012889273 -0.0141758695 0.03329504 -0.008200619 0.04447444 -0.032824147
-0.004876826 -0.024147581 -0.019030713 -0.011647057 0.054453496 0.015018385 0.023864243 -0.017678432
-0.007961482 -0.0024342611 -0.040609557 0.04017831 0.017405573 -0.030889355 0.0047805943 0.036893558
-0.046236314 -0.025935743 -0.016494758 0.05529431 -0.0018272288 0.05571722 0.034073602 0.001963839
-0.016430914 0.024360728 0.011148039 0.038042482 0.033401158 0.021746721 0.056022685 0.04025175

encoder.2.bias f4 [64]
00000000: 12ed ddbc 9089 a8bc a198 213d b66c a53c
00000010: 14aa 563c 3a9b 67bd bc36 763c 5da4 65bd
00000020: 64b2 6bbc 2349 2c3d 47fb 0c3d 6ec0 893c
00000030: 20dc 63bc 797d 57bd e136 3f3d 3a39 27bd
00000040: 4770 1dbd 2eb9 34bd 7b50 213d 7f1f fbbc
00000050: 34f8 623c 0533 6a3d 07fa 293d 263a 923c
00000060: f05c 41bd f7cc 3a3d 4e2f d7bc 0c33 2fbc
00000070: 80d8 2a3a a538 283d c076 67bc 14a6 5abd
00000080: 2fbd 173d c188 4bbd 0e17 a03c 93dd 43bd
00000090: d427 b4bc 14ce 743c c5fa 2c3d c3fd 0b3d
000000a0: fb6e 433d 7c42 19bd 90c3 78bb a001 ddbb
000000b0: 5bb1 efbc 3aec 47bd 8865 1bbc 9d9d 66bd
000000c0: e229 f13c ef34 023d c9fd 183d 90fd 26bc
000000d0: 9699 0ebd f7a2 673d 3639 a53c a4ec 7d3c
000000e0: 8875 3ebd 5ea5 d33c 0087 b139 cc58 753c
000000f0: 2e3f cfbc ef3d 3a3d 9db6 343d 7f42 553d
-0.027090583 -0.020573407 0.0394522 0.020193439 0.013102073 -0.05654452 0.015027698 -0.056064952
-0.014385793 0.042061936 0.034419324 0.01681539 -0.013907462 -0.052609894 0.046683196 -0.04082606
-0.038437154 -0.044121914 0.039383393 -0.030654667 0.013853122 0.057177562 0.04149821 0.017849993
-0.047207773 0.045605626 -0.026267674 -0.010693323 0.00065172464 0.041069645 -0.014127433 -0.05338104
0.037045654 -0.049690966 0.019542243 -0.04781873 -0.021991648 0.014941711 0.04223134 0.034177553
0.04771326 -0.03741692 -0.0037958361 -0.0067445785 -0.029259374 -0.048809268 -0.009484656 -0.056302655
0.029438917 0.031788763 0.037351403 -0.01019229 -0.03481444 0.0565519 0.020168882 0.015498314
-0.046498805 0.02583569 0.00033860654 0.014974784 -0.025298681 0.04546922 0.044119466 0.05206537

encoder.4.weight f4 [128, 64, 3, 3]
00000000: 2798 27bd 893d 103d 58e3 d43b d04d 0fbc
00000010: 08ce 8cbc 94e6 043c 6807 8b3b 58de adbc
00000020: 4267 ff3c 6af6 bd3c 6077 88ba c08e 4b3b
00000030: 0047 1dbd f881 babb a6e4 4ebc e63f bc3c
00000040: 2669 9b3c 34ce 23bd 50c2 703c e201 8e3c
00000050: 009e d33b fde0 173d 608a 863c eb47 cdbc
00000060: 4073 55bb a0f0 5dbc 20e4 573c ac6d 503c
00000070: dcc2 65bc 50af 1a3c 2af6 e43c 80e7 6c3b
00000080: 3e75 ffbc c01e 653a 1be8 c6bc 102a 2d3b
00000090: 4086 3abc bb8c 0abd 2de8 0f3d 0c98 2abd
000000a0: 440d 0dbc c2c7 f73c 8e56 02bd 6273 09bd
000000b0: 00f6 92b8 9e1e d3bc 0a69 fd3c 8a15 00bd
000000c0: 480b f1bc 5c0d 5c3c bc3f 4dbc a086 34bc
000000d0: e074 8f3b d408 03bd 43b9 023d 50ad f2bc
000000e0: 06d4 d1bc 10c1 5b3b 4a3a f63c b459 28bc
000000f0: 2322 0d3d 8001 42bb 78d5 a6bb 7809 d13b
00000100: 3893 82bb 680f bfbc c6f0 45bc 660f b33c
00000110: 86bc f83c fed4 cebc 9fb3 08bd 4e31 d13c
00000120: 827d d93c 26aa 35bc 60c3 9d3b 9af4 18bd
00000130: 513e 073d 760d b33c a0ed 8ebb 9606 cabc
00000140: 487a 9a3c 746e 353c 1e70 b53c 3e14 d7bc
00000150: 7ded 0d3d 0233 d03c 4762 053d a46a 7f3c
00000160: 1a9b c23c aa80 fa3c de24 ae3c af1a 093d
00000170: 3e13 a83c 7b5d 163d 6bf4 13bd 3889 bcbb
00000180: 96ed 4cbc 80ea e7bb 56b9 bfbc d878 bc3b
00000190: b4d3 0dbd 9313 a4bc 5d3b 0b3d 885a cc3b
000001a0: 7a04 f23c 0eb5 fa3c 8001 62bb 8ae2 973c
000001b0: 2a11 bb3c 4676 893c 88e2 09bd 228f da3c
000001c0: 6e4e 19bd b4b4 453c 505d 483c ae5b 29bd
000001d0: c295 26bd c53e 253d e00e a1bc 941c 12bc
000001e0: 227c b83c 14c7 233c 5870 87bb 038b 8cbc
000001f0: 92cf 24bd 302e 533c 88c5 b93b 82d6 fa3c
00000200: 700d 963c 068c f4bc c3e5 9cbc 7826 1fbd
00000210: 58f5 c73b b376 f8bc bf25 22bd 818f 043d
00000220: 0f46 273d e0f2 0cbc 8a60 ee3c 00f5 cbbb
00000230: 1357 1dbd 4805 bbbb fe31 bc3c 2110 213d
00000240: 5d7a 033d 60dd fabb faa0 f13c 805d b53a
00000250: eeba b23c 569a d93c 3925 193d 9447 10bd
00000260: 782d bb3b f05a 1d3b 18cf 17bd 4a1d 803c
00000270: e6fc e8bc 0821 983c 6091 2abc 6af5 843c
00000280: 3ed8 11bd dbd6 ffbc 1637 f53c 889f 95bc
00000290: 78e5 9abc 8088 eaba dcb6 483c 427a e23c
000002a0: 635e 0f3d 009f 88bb 4ceb 42bc e09b 1f3c
000002b0: 80e6 bebc 9907 173d a420 25bc a0ca f83a
000002c0: c0d0 1c3c 40b9 1fbb fa20 d23c 86b4 83bc
000002d0: 0042 a6b8 42b7 0dbd 6558 0e3d 9ef0 d3bc
000002e0: 98d2 9f3c ba5c 1dbd 40fa 733b 78cf e8bc
000002f0: 43c6 1b3d 18e0 b23b 0080 c83b 0032 a638
00000300: 2e8e a6bc 5b85 21bd ccf1 033c 9a1b c73c
00000310: e050 a2bb 20c2 a2bc 7211 d13c 3827 a2bb
00000320: 78fd c4bc 136f 163d 26d9 aabc 0a79 b03c
00000330: e05a 12bc 031c 08bd 5cac 6cbc 132d 123d
00000340: 0f00 19bd a41c 353c b96b 253d e054 9dbb
00000350: e373 0d3d 288c 893c 8399 e1bc e624 ffbc
00000360: 0b82 d9bc 20c6 543c 6029 dabc 06b1 d8bc
00000370: 80c5 ce3b e6b6 ef3c f84e e5bc b05c 7a3b
00000380: 8091 33bb 0f4d 213d 5d73 163d c573 133d
00000390: 79a2 253d e0e6 d33b 4039 793c 40a6 a6bb
000003a0: 46cf dabc 5e08 ff3c 0c15 67bc be06 f53c
000003b0: e07f 02bd 0967 043d 687c f0bb 8e51 843c
000003c0: 2a84 e63c 6190 2a3d 6008 d2bc 7223 cb3c
000003d0: ba4c b73c ab8d 1f3d dcc9 453c 6ace 9a3c
000003e0: 33e9 98bc 003a 983a 7425 1ebc ed2b 043d
000003f0: 6765 083d a0bf 0bbc d827 dd3b 914c 073d
-0.04091659 0.035214934 0.006496828 -0.008746579 -0.017188087 0.008111615 0.0042428263 -0.021224186
0.031177167 0.023188788 -0.0010411553 0.0031060427 -0.03839779 -0.005691763 -0.012627756 0.022979688
0.018971037 -0.039991572 0.014694765 0.017334882 0.006458044 0.0370798 0.016423404 -0.025058707
-0.0032569915 -0.013546139 0.013176948 0.01272146 -0.014023509 0.009441212 0.027949411 0.0036148727
-0.031183835 0.0008740239 -0.024280598 0.0026422776 -0.011384547 -0.033825617 0.03513353 -0.04164891
-0.00860912 0.03024662 -0.031820826 -0.033557303 -7.0076436e-05 -0.025771435 0.030933876 -0.03127054
-0.029424325 0.0134309195 -0.0125274025 -0.011018425 0.0043779463 -0.03199084 0.03191496 -0.029623657
-0.025613796 0.0033531822 0.030057091 -0.010275293 0.034456383 -0.0029602945 -0.0050913654 0.0063793026
-0.003984835 -0.023322776 -0.012081331 0.021857928 0.030363332 -0.025248047 -0.033374425 0.025536206
0.026549105 -0.01108793 0.0048145503 -0.037342645 0.033018414 0.021857005 -0.004361823 -0.024661344
0.018857136 0.011073697 0.022148188 -0.02625477 0.034650315 0.025414947 0.032564428 0.01558939
0.023755599 0.03057893 0.021257814 0.033472713 0.020516988 0.036710244 -0.036121767 -0.0057536624
-0.012507817 -0.007077515 -0.023403805 0.0057517104 -0.034625724 -0.020028865 0.03399216 0.006236378
0.02954315 0.030603912 -0.0034485757 0.01854064 0.022835333 0.01678003 -0.033663303 0.02667958
-0.037428312 0.012067009 0.012229279 -0.0413472 -0.040670164 0.040343065 -0.019660413 -0.008917946
0.022520129 0.009996194 -0.0041332655 -0.01715613 -0.040237017 0.01288943 0.0056692995 0.030619863
0.018316954 -0.029851925 -0.019152528 -0.038855046 0.0061022453 -0.030330038 -0.03958678 0.03236342
0.040838297 -0.008602828 0.029098768 -0.0062242746 -0.03841312 -0.0057074167 0.022973057 0.039322022
0.032099117 -0.0076557845 0.029495705 0.0013837069 0.02181765 0.02656285 0.037389014 -0.035224512
0.0057122074 0.0024010502 -0.037062734 0.015638966 -0.028440904 0.018570438 -0.010410637 0.016230304
-0.035606615 -0.03123038 0.029933494 -0.018264547 -0.018908247 -0.0017893463 0.012250628 0.027646188
0.035002124 -0.004169345 -0.011896919 0.009741753 -0.02330327 0.03687248 -0.010078583 0.0018981285
0.009571254 -0.0024371892 0.02565049 -0.016077291 -7.92779e-05 -0.034598596 0.03475227 -0.025871571
0.019509599 -0.03841851 0.0037228018 -0.028419241 0.038030874 0.005458843 0.0061187744 7.92481e-05
-0.020331468 -0.03943382 0.008053254 0.024305154 -0.0049534887 -0.019867957 0.025521014 -0.004948523
-0.024046645 0.036727022 -0.020855498 0.02154209 -0.008932799 -0.03322984 -0.014445391 0.035687517
-0.03735357 0.011054192 0.040385935 -0.0048013777 0.034534346 0.016790465 -0.02753902 -0.031145524
-0.026551267 0.01298669 -0.026631057 -0.026451599 0.006310165 0.029262017 -0.027991757 0.0038202219
-0.0027399957 0.03938013 0.036731113 0.03599908 0.04043815 0.0064667314 0.015211403 -0.0050857365
-0.026710164 0.03113192 -0.014104139 0.029910441 -0.031860232 0.032324824 -0.007339049 0.01615217
0.028139193 0.041641597 -0.02563876 0.024797175 0.022375453 0.038953464 0.012072053 0.018897254
-0.018665886 0.0011613965 -0.009652484 0.032268453 0.03329983 -0.008529574 0.0067491345 0.033032004

encoder.4.bias f4 [128]
00000000: 9889 9dbb f064 8dbc c95d 093d 5438 483c
00000010: 6cff 15bc 40d2 04bd f0b9 373c 401c 7a3a
00000020: b871 943b 9b12 1dbd b6d6 41bc 5049 7cbc
00000030: ce55 b53c ea8b ef3c 7822 98bb 7005 293b
00000040: 6010 bc3b 260a c2bc 802f ca3b 80ba 103c
00000050: 808d 353c 1840 a1bb 3cf1 5dbc 411c 183d
00000060: 6296 e93c 5ca7 08bd 6a83 c63c f4a7 06bd
00000070: 9b8c 92bc b9af 063d ea29 0cbd ac2f 603c
00000080: 7252 8b3c 52fd 13bd 769c e4bc b498 27bc
00000090: 2002 973b 9c3e 153c 6ab2 f43c 400c b0bc
000000a0: fc17 25bd 2cff 10bd 402a 8abb d256 993c
000000b0: 3e64 0cbd 59bd 0a3d 6661 8c3c a2ff ad3c
000000c0: be15 dabc 66cf ba3c 005b 64bc 5f39 25bd
000000d0: acc5 7ebc 2496 19bc e951 273d 1374 82bc
000000e0: 40cc ad3b cfa7 153d 40cc 563b e80d ecbc
000000f0: 90eb a23c 6819 93bb 089f 9ebb fda7 0e3d
00000100: 3702 1fbd b0de 19bb c64a 11bd 35cc 1e3d
00000110: 7e12 aabc 7ffd 103d c618 b53c cb98 11bd
00000120: 30a1 713b 5ccc 363c b427 043c bc4c 1abd
00000130: a04d 333c 38a6 eabc fc2d 13bd af5b 1e3d
00000140: 5978 233d 00be 6a3c a565 003d 92de 9f3c
00000150: bb06 26bd 334e a2bc 39a5 0c3d fc95 443c
00000160: 80aa 803c 9091 353c 9464 123c b0f7 75bc
00000170: c370 cebc 4ed3 eebc a08d eebb 00fb babc
00000180: 7e94 81bc 9c89 7a3c 509d 293c f823 cdbb
00000190: dcac 523c b0b1 3cbc 006e 06bd 30dc 453b
000001a0: 7061 63bb 9896 dfbc 4025 d0bb 2fec 1f3d
000001b0: ea70 f23c 7fcf 193d a807 9b3b b29e db3c
000001c0: a659 9abc 5e82 983c 50c1 24bd ef5b 23bd
000001d0: 40a4 67bb 505d 733b f0a1 87bc ee6b aebc
000001e0: c7ef 243d 72c1 fd3c d6c6 dbbc d8e1 94bc
000001f0: 2db6 043d 153f 0b3d a892 a9bb 089f debc
-0.004807662 -0.017260045 0.033536706 0.012220461 -0.009155136 -0.032427073 0.011213765 0.0009540953
0.004530158 -0.03834782 -0.011830976 -0.015398338 0.022135641 0.02924152 -0.004642781 0.0025790595
0.0057392567 -0.02368648 0.006170213 0.008833528 0.0110810995 -0.0049209706 -0.013546284 0.03713632
0.02851409 -0.03336273 0.024232585 -0.032875016 -0.017889312 0.032882426 -0.03421966 0.013683241
0.017007086 -0.036130257 -0.027906638 -0.010229278 0.0046084076 0.0091091655 0.02987023 -0.021490216
-0.040306076 -0.0353996 -0.0042164624 0.018718157 -0.034275286 0.033871982 0.017136287 0.02124006
-0.026621696 0.022803973 -0.013937712 -0.040337916 -0.015550058 -0.009374175 0.0408496 -0.01592449
0.0053038895 0.036536988 0.003277555 -0.028815225 0.019887716 -0.0044891126 -0.0048407353 0.034828175
-0.03882047 -0.002347868 -0.0354717 0.038768966 -0.02076077 0.035398003 0.02210654 -0.035546105
0.0036869757 0.0111571215 0.008066107 -0.037670836 0.0109438 -0.028643712 -0.035932526 0.038661655
0.039909694 0.014327526 0.031346936 0.01951531 -0.040533762 -0.019812679 0.034337256 0.01199865
0.0157063 0.011082068 0.0089351125 -0.015012667 -0.025200253 -0.029153492 -0.0072800666 -0.022824764
-0.015817877 0.015291598 0.010352448 -0.0062603913 0.012858596 -0.011516973 -0.032819748 0.0030191056
-0.0034695528 -0.027293488 -0.006352097 0.0390436 0.029594857 0.0375514 0.0047311373 0.02680907
-0.018841576 0.018616851 -0.04022342 -0.039882597 -0.0035345703 0.0037134476 -0.01655671 -0.0212917
0.040267732 0.030976031 -0.02682821 -0.018174097 0.0324003 0.033995707 -0.0051749535 -0.027175441

decoder.0.weight f4 [128, 64, 3, 3]
00000000: e648 6bbc 549a 2c3c e634 2bbc c07e bcbc
00000010: 82fe eb3c 684d f13b 4f25 123d 79ee 073d
00000020: 6be2 bdbc 60c7 943b b099 043c 0a77 f73c
00000030: 776c 0e3d 4efc 903c c41c 793c b0f4 19bc
00000040: 7661 903c cbf4 e1bc 0a0a 18bd 87de 1a3d
00000050: a0f9 09bc fa26 b13c 76ec c7bc 3832 cabc
00000060: a07e c03a cc1e 21bc 7fe5 13bd b0ca 36bc
00000070: 9a72 923c ec51 453c 803f 6bbc 4018 c63b
00000080: 3950 253d 9874 963c 381b 88bc c606 5abc
00000090: 40e7 8f3c 3ee7 b2bc 2a2c f23c e7ed 203d
000000a0: e4e5 5a3c bec0 f6bc 00d8 dbb9 d1c6 103d
000000b0: b2ad 07bd 8a55 b13c 0c3d 1cbd 50b9 183b
000000c0: 7025 67bb b098 09bb e6b0 dcbc f819 d8bc
000000d0: 04eb 24bc e3be 21bd 0801 ef3b 5bc1 163d
000000e0: a032 94bb 0052 8ab8 4e09 f13c 1bf3 fbbc
000000f0: daf3 bc3c 4a17 9d3c d8f4 17bd d38f 81bc
00000100: ddd8 003d 01ba 233d 40e5 32ba 0092 22ba
00000110: 9029 0dbd e04d f03b b065 74bb a6bc 823c
00000120: 8845 d73b 6ba1 00bd de7e bcbc 73cc 97bc
00000130: 0060 8eb6 a072 503c 4094 5dba 1c16 07bd
00000140: 92b4 0fbd a48e 21bc ed44 063d 3d36 013d
00000150: 3b23 103d 4018 5b3a 862f f5bc 207c 443c
00000160: f654 a73c 80d0 e23b 3020 b8bc 12e5 c83c
00000170: d674 12bd de7f 95bc 8e72 dbbc 789d cebc
00000180: 6828 94bb 0b69 a2bc ee46 25bd 90bf 20bd
00000190: c0b5 39bb 6a0c d23c 25c4 0d3d 2be5 c2bc
000001a0: f57c 0d3d 195d 033d 0d8d 283d c6ea 42bc
000001b0: d6ef dd3c 63dc ebbc 9e1d e1bc ed98 153d
000001c0: 3a75 e73c a040 fa3a 2c02 5cbc 2084 a9bb
000001d0: b4b1 06bd 33bd c7bc 02dd c93c 9c4b 29bd
000001e0: a24c bf3c 28ad 9f3c 0082 b5b9 e169 133d
000001f0: 202c 583c f3bb febc 6739 163d 66b0 46bc
00000200: 575e 1c3d eeb1 c4bc 3d4d 263d 6840 90bc
00000210: 800b 573c a27a 853c 671b 1abd ab3d c9bc
00000220: 2971 103d 4099 8f3c 9e67 85bc d0a6 3b3c
00000230: 9412 0ebd f0ef 653b d0c6 84bc a04a aabb
00000240: 642d 12bd ca24 a33c 979c 04bd f2ad eb3c
00000250: f840 acbb 085e f93b ee7f 89bc 19b0 023d
00000260: 42a7 d93c 7da4 1e3d ee38 18bd f214 b13c
00000270: 981d efbc 6cd6 03bc 1f57 1abd 0e9b 14bd
00000280: 105f 30bb c876 c73b a410 1dbc 1edd bd3c
00000290: ae6a f53c 7ee7 f2bc b883 bd3b 58e2 ffbc
000002a0: c8fa cabc e628 fdbc dd49 073d b8e2 94bb
000002b0: 9836 ee3b 5af1 d63c 806a c939 3067 493b
000002c0: 1816 80bb 2a2e da3c 94e8 06bc 8efe 9fbc
000002d0: 1c89 7d3c 4648 c73c a09c 023c 0e06 0ebd
000002e0: 7972 123d 9a00 0cbd 905b 183b 5276 dd3c
000002f0: 524a 21bd dbba c2bc f68e 80bc 1bcf 20bd
00000300: 0e9f aabc dc94 28bd 6292 cb3c 8cd2 18bd
00000310: 6ec6 fb3c 4049 1bba e28a a83c 935e b8bc
00000320: 366a c5bc 1000 62bb 700b 37bc 2d8c 0a3d
00000330: 3a2b e13c e8b4 803b b829 9abc 1091 31bb
00000340: 70bc 2b3c 3bdd 8abc 28e6 f03b 60b7 f1ba
00000350: 9b30 cabc 569d d6bc 5a03 04bd ac4c 5fbc
00000360: 14d1 5c3c 7825 0ebd c00b 1fba 5ce5 53bc
00000370: 8c42 0bbc 18fc b2bb 92ba be3c 1873 f8bc
00000380: b0e8 18bd 90ca 21bd 4081 013b 5a6b f83c
00000390: fab0 da3c 5c8d 44bc 8fb7 023d 9692 c7bc
000003a0: 6042 d1bc f337 debc 527f bc3c dc48 06bc
000003b0: a0e7 d3bb 80c5 78bb 3ac3 e13c d60e a3bc
000003c0: 1a46 fa3c e7ab 103d fdc5 1a3d e6ed 98bc
000003d0: 53e2 15bd 668e f5bc 36c2 a8bc d1f6 263d
000003e0: 6ce3 773c 724c d83c 16d7 a13c a464 17bc
000003f0: 5924 023d 33cd a0bc 3043 773c 20ff 303c
-0.014360642 0.010534842 -0.010449624 -0.023009658 0.028807882 0.007363964 0.03568011 0.03318641
-0.023179254 0.004540369 0.008093283 0.03020813 0.03477141 0.017698433 0.015204612 -0.009396717
0.017624598 -0.027582547 -0.03711895 0.037809875 -0.008421332 0.02162503 -0.024404746 -0.02468215
0.0014686175 -0.009834003 -0.036107536 -0.011156723 0.017876912 0.0120434575 -0.014358401 0.0060453713
0.04035971 0.018366143 -0.016614541 -0.013307279 0.017566323 -0.02183878 0.029562075 0.03928938
0.013360474 -0.030121204 -0.00041931868 0.035345856 -0.033124633 0.021647234 -0.038144156 0.0023303814
-0.0035270117 -0.002099555 -0.02693982 -0.02637957 -0.010065798 -0.039488684 0.007293824 0.036805492
-0.0045226365 -6.5956265e-05 0.029423382 -0.03075557 0.023065496 0.019176144 -0.037098736 -0.015815651
0.031456817 0.03997231 -0.0006824322 -0.0006201565 -0.034463465 0.007333502 -0.0037292056 0.015959095
0.006569568 -0.03140394 -0.023009714 -0.018530106 -4.2431056e-06 0.012722641 -0.0008452572 -0.03298007
-0.035084315 -0.009860668 0.032780576 0.031545866 0.03518985 0.00083578005 -0.029929888 0.011992484
0.020426255 0.006921828 -0.022476286 0.024523292 -0.035755955 -0.018249448 -0.026788022 -0.025221571
-0.0045214184 -0.019825479 -0.040350847 -0.03924519 -0.0028337091 0.025640685 0.034610886 -0.023790916
0.034542996 0.032071207 0.04115014 -0.011896795 0.027091902 -0.028791612 -0.027479943 0.036522795
0.02825414 0.0019092746 -0.013428252 -0.005173221 -0.032884315 -0.02438221 0.024641518 -0.041331872
0.023351971 0.019491747 -0.00034619868 0.035989646 0.013194114 -0.03109548 0.036675837 -0.012127018
0.038175907 -0.024010625 0.040601004 -0.017608836 0.0131253 0.016293827 -0.03762379 -0.024565538
0.035264168 0.01752913 -0.01628476 0.011453345 -0.034685686 0.003508564 -0.016208082 -0.0051968843
-0.03568782 0.019915003 -0.0323759 0.028769467 -0.0052567683 0.0076100864 -0.016784634 0.03190622
0.026569013 0.038731087 -0.037163667 0.021616433 -0.029188916 -0.008046728 -0.03768074 -0.036280684
-0.002691213 0.006087158 -0.009586487 0.023176726 0.029958095 -0.0296514 0.0057835244 -0.031235859
-0.024777785 -0.030903291 0.033029426 -0.0045436285 0.0072696917 0.026238132 0.00038417056 0.003073167
-0.003908884 0.02663334 -0.008234162 -0.01953056 0.015474584 0.024326455 0.007971913 -0.034673743
0.0357537 -0.03418026 0.0023247935 0.027033959 -0.039377518 -0.02377074 -0.01569317 -0.03926001
-0.020827796 -0.04115759 0.024850074 -0.03731017 0.030734267 -0.0005923696 0.020574037 -0.022506034
-0.024098497 -0.00344849 -0.0111721605 0.03382509 0.027486432 0.0039278157 -0.018818721 -0.002709452
0.010481939 -0.016951194 0.0073516555 -0.0018441491 -0.02468138 -0.02619807 -0.03222976 -0.01362912
0.0134775825 -0.0347037 -0.00060671195 -0.0129331015 -0.008499753 -0.005462181 0.023282323 -0.030328318
-0.037331283 -0.03949982 0.0019760877 0.030324627 0.026695717 -0.011996593 0.031913336 -0.02436189
-0.025544345 -0.027126288 0.02300993 -0.008196082 -0.006466821 -0.0037959516 0.027558912 -0.019904535
0.030551005 0.03532019 0.037786473 -0.018668126 -0.036592793 -0.029975127 -0.02060042 0.040762726
0.015129905 0.02640364 0.019755881 -0.009240303 0.031772945 -0.019629097 0.015091702 0.010803014

decoder.0.bias f4 [64]
00000000: 801b 163b cfbc 12bd 90ce c1bc 00ef d4bc
00000010: 0f12 29bd 33ab 9dbc dc91 69bc c062 b93b
00000020: 6089 533c 259d 223d af3f 123d 7826 833b
00000030: b499 28bd 18a4 1dbd 604d c3bb 06b1 31bc
00000040: 54b1 613c fec8 25bd 0866 bc3b 4001 7e3a
00000050: 13f8 cfbc 569c e23c 68ef c2bc 906c 303c
00000060: d8c9 82bb b096 2f3b 0380 9abc 78c4 04bd
00000070: 7974 1c3d 7069 74bb 09fe 213d 05d3 0c3d
00000080: 4066 e13b 6909 163d d7c2 23bd b619 b2bc
00000090: d04e d3bc a655 d0bc 1a52 f13c a445 1dbc
000000a0: 1629 e2bc b2ec 863c 413c 223d a6ca e13c
000000b0: 18af 80bc d543 243d 0083 783a 00b6 643c
000000c0: 521b 883c 5851 9e3b 968c cb3c 73a4 c6bc
000000d0: 86b4 21bd be93 dc3c ae9c efbc 2ef4 bf3c
000000e0: e272 c93c 32e4 03bd 9adc 8a3c b16e 253d
000000f0: e2c0 0ebd c875 ebbb e613 f43c 2808 ca3b
0.0022904575 -0.035824593 -0.023658067 -0.02599287 -0.041276988 -0.019246673 -0.014255967 0.005657524
0.012911171 0.039700646 0.035705265 0.0040023886 -0.041162208 -0.03848657 -0.0059601516 -0.010845428
0.0137751885 -0.040474884 0.0057494678 0.00096895173 -0.025386846 0.027662437 -0.023795798 0.010768071
-0.003991347 0.0026792698 -0.018859869 -0.03241393 0.038197014 -0.003729429 0.039548907 0.03438093
0.006878644 0.036630068 -0.039980736 -0.021740776 -0.025794417 -0.025431465 0.029458094 -0.009599123
-0.027607482 0.016470287 0.039608244 0.02756245 -0.015708491 0.040103752 0.000947997 0.013959408
0.01661459 0.0048314743 0.02484731 -0.024248337 -0.0394788 0.026925918 -0.029249515 0.023431864
0.024590913 -0.032200046 0.016950894 0.040388767 -0.034851916 -0.0071856715 0.029794645 0.006165523

decoder.2.weight f4 [64, 32, 3, 3]
00000000: 6483 07bc 005a b63a 2411 07bd 0da9 523d
00000010: b4f2 16bc b095 69bd 8204 c93c 9884 9ebc
00000020: 40aa 2cbc dc73 28bd 48f2 02bc 4f9b eabc
00000030: e80f a43b 06d5 993c 10d9 37bc 16fc 16bd
00000040: 3e79 9e3c f137 443d 9c18 e3bc 9635 0bbd
00000050: 94f3 74bc 20ce 363b d85c 47bc a468 383c
00000060: 4200 80bc cc64 f5bc fa41 33bd 22a6 b43c
00000070: dca8 01bc 9e1a f23c f4ce 153c 6286 33bd
00000080: fa75 bc3c 21bd 183d 7613 49bd 2a84 ba3c
00000090: 9806 2ebd 9536 0f3d 9af3 c6bc f8bd 803b
000000a0: 3775 073d 80e6 9cb9 5857 9b3b 749e 633c
000000b0: 0d87 343d 9040 66bd c0dd 22bd 4070 923a
000000c0: 7203 e5bc 7e5e 30bd 90cc 05bd 554a 173d
000000d0: a2b4 f63c 720b cb3c 3d9d 66bd 9a9f cc3c
000000e0: 9878 e6bc bc46 70bd f068 08bc 4004 e73a
000000f0: 96eb c3bc 185a d6bc 5edf af3c d050 88bc
00000100: e918 0a3d 041e e3bc 899f 033d 5a31 07bd
00000110: ec44 523c 50c6 85bb 8787 493d 3685 0dbd
00000120: 2f42 353d e572 513d 5ccc 20bd 76f9 49bd
00000130: d41a bebc 3ec0 99bc 8541 653d fff0 11bd
00000140: 3096 4dbd 2f21 353d 202d 3dbd 5298 34bd
00000150: 5f87 673d e632 9d3c 48f3 fdbc 1b33 053d
00000160: 0085 143b 6f55 42bd 1efe 9d3c 82f0 d33c
00000170: 8b61 5bbd 4ef5 31bd 2b16 3f3d ae4a 813c
00000180: c045 613b 06c1 a53c b074 5abc 049b ebbc
00000190: 5aae c03c 4068 10bd f90c 4f3d 807e a0bc
000001a0: fc06 8bbc 50e4 4fbd 7b69 203d e8f3 ef3b
000001b0: 8010 a43a c4ac 60bd 02cd a63c 1bc8 1b3d
000001c0: 0884 a0bb 55c5 26bd c93a 293d 6a47 59bd
000001d0: a07c 1fbd 0717 263d d08c 6bbd cafb eb3c
000001e0: 205a 53bc 7795 2d3d 4db0 023d f098 69bc
000001f0: d368 123d b2e1 82bc a011 813a d227 36bd
00000200: bcc9 19bc c888 8e3b 24d9 1abc 5a7c b6bc
00000210: 7835 52bd 4fd7 243d 4a76 f53c ffbb 6ebd
00000220: 5e60 17bd aef3 9e3c bf08 10bd 1077 b6bb
00000230: 3256 923c e560 043d 00e1 9e39 0cbb 1d3c
00000240: b1f9 613d 5291 debc 70ad 4cbb ec7d 7c3c
00000250: a86f 23bc b04f 32bc ed36 703d 8020 58bd
00000260: 76e9 af3c 3ca4 57bc 583c ee3b b8ad 57bc
00000270: aadc 29bd b86a 28bc 9a71 47bd 165c 8d3c
00000280: aa80 9b3c 19ee 033d 6216 fc3c 1f7b 103d
00000290: 5ed2 893c ee25 d63c d020 ffbb 36f0 b4bc
000002a0: 3059 6fbc e7a4 5c3d 30cb 26bd 8089 c3ba
000002b0: 0084 59b9 4f87 5fbd 58d4 af3b 649e 22bd
000002c0: 6e49 80bc 5123 193d 9eed 38bd 331e 6dbd
000002d0: f0de dbbc 30c7 22bc 5ce3 5fbc 1a82 2cbd
000002e0: 4726 6cbd 92d8 9d3c 149a 76bc febf adbc
000002f0: 59fb 293d 9341 42bd 5857 1ebd 2fc6 3e3d
00000300: 292f 333d 5690 9b3c 9253 c43c 1169 033d
00000310: 4e01 1abd 0fda 2b3d 5bcb 64bd 6ab6 b43c
00000320: f0bc 0d3b b7f8 18bd 4830 4fbc dff0 3f3d
00000330: aced 783c d00d 123b 5079 273b ca44 08bd
00000340: 3f5a fbbc b0e4 18bc ccaa 1bbc ac0a 54bd
00000350: ebba 3f3d 4607 c03c ac21 1abd 08f2 51bc
00000360: ea37 d83c 9a47 dbbc 88e7 883b 02a5 ab3c
00000370: 1c26 423c 001d cdb9 3b49 553d 2818 06bd
00000380: 7c8c 123c b0d4 c7bb e3e7 51bd 67ec 443d
00000390: 66be b2bc 68ce 1cbd df6b 073d 5812 c4bc
000003a0: 801c adbc 52ce 95bc 48ca f2bb 3e1e a6bc
000003b0: a88c 923b 64e6 003c d035 91bc 38c7 ea3b
000003c0: 20ea 22bc e031 3dbd 3ab1 05bd 9292 de3c
000003d0: 1b6a 1c3d 5b07 3d3d 94f8 62bd a8f8 ebbb
000003e0: f018 bfbb a338 5d3d 0077 93bc 3ebb b63c
000003f0: 02aa df3c eabc 903c f433 70bc e148 6c3d
-0.008271072 0.001391232 -0.03297533 0.05143075 -0.009213138 -0.05702752 0.024538282 -0.019350335
-0.010538638 -0.041126117 -0.007992335 -0.02863851 0.005006779 0.018778335 -0.011221185 -0.0368615
0.019344922 0.047904912 -0.027721696 -0.03398665 -0.014950652 0.0027893856 -0.012168132 0.011255417
-0.015625123 -0.02995529 -0.043764092 0.022051875 -0.007913794 0.029553708 0.00914358 -0.04382933
0.023005474 0.037289742 -0.049090825 0.022768099 -0.042486757 0.034964163 -0.02428608 0.003928896
0.03307077 -0.00029926375 0.004740637 0.013892759 0.044074107 -0.056213915 -0.03976226 0.0011172369
-0.027955744 -0.043058865 -0.03266579 0.036936123 0.03011543 0.024785731 -0.056302298 0.024978448
-0.028133675 -0.058661208 -0.0083258 0.0017625168 -0.023916047 -0.026166007 0.021468814 -0.016640097
0.033715162 -0.027724274 0.032134566 -0.03300605 0.012833815 -0.0040824786 0.049201515 -0.034550868
0.04425257 0.051134963 -0.039257392 -0.04931017 -0.023206152 -0.018768426 0.055970687 -0.035630222
-0.050192058 0.0442211 -0.046185613 -0.044090576 0.056525584 0.01918931 -0.030999795 0.03251944
0.0022662282 -0.047444757 0.019286212 0.025871519 -0.05355982 -0.04344683 0.046652 0.01578268
0.003437385 0.020233642 -0.0133334845 -0.02876044 0.023520637 -0.03525567 0.05054948 -0.01959157
-0.016971104 -0.050754845 0.039163094 0.007322777 0.0012517124 -0.054852262 0.020361427 0.038032632
-0.004898552 -0.040715534 0.041315828 -0.05304662 -0.03893721 0.040549304 -0.057507336 0.028806586
-0.012899905 0.04237887 0.031906415 -0.014257655 0.0357445 -0.01597676 0.0009847172 -0.04447157
-0.009386476 0.0043498017 -0.009451184 -0.022276092 -0.051320523 0.040244397 0.029963631 -0.058284756
-0.036957137 0.019403305 -0.03516459 -0.0055683926 0.017863367 0.03231897 0.00030303746 0.009627115
0.055169765 -0.027168903 -0.0031231306 0.0154108815 -0.009975351 -0.010883257 0.05864613 -0.05276537
0.021473628 -0.013161715 0.007270377 -0.013163976 -0.041470207 -0.01027935 -0.048692323 0.017255824
0.01898225 0.03220949 0.030772392 0.035273667 0.016823944 0.026141133 -0.007785894 -0.022087198
-0.014608666 0.0538682 -0.04072112 -0.0014918298 -0.00020743906 -0.0545724 0.0053658895 -0.039701834
-0.015660014 0.037387196 -0.045148484 -0.05789013 -0.026839703 -0.009935185 -0.013665047 -0.042116262
-0.05765369 0.019268308 -0.0150513835 -0.021209713 0.04149947 -0.047425818 -0.038657516 0.04657572
0.043746147 0.018989723 0.02396563 0.03208262 -0.0375989 0.041956004 -0.055857997 0.022059638
0.0021627508 -0.037346568 -0.0126457885 0.046860572 0.015193384 0.0022286065 0.0025554486 -0.033268727
-0.030682681 -0.009331867 -0.00950117 -0.05176799 0.04680912 0.023440968 -0.03762977 -0.012814052
0.02639385 -0.02676754 0.0041779913 0.020952705 0.011849906 -0.00039122254 0.05207179 -0.03273788
0.008944627 -0.0060983524 -0.051246535 0.048077013 -0.021819305 -0.03828278 0.03306186 -0.023934528
-0.021131754 -0.018286858 -0.0074093677 -0.020278092 0.004472334 0.007867429 -0.017725855 0.007164862
-0.009943515 -0.046190143 -0.03263972 0.0271695 0.038187128 0.046149593 -0.055412844 -0.007201273
-0.00583183 0.05400909 -0.01800108 0.02230608 0.027302746 0.017668206 -0.014660824 0.05768669

decoder.2.bias f4 [32]
00000000: 2454 04bd 48d1 b7bc 4195 683d 560e a73c
00000010: 5422 553c a362 f2bc bef1 d83c b451 fcbc
00000020: 2e22 08bd d66f b8bc e6a0 cabc 708c 2d3b
00000030: 9e0b f93c d0fd 6fbd 3ae7 e83c 651d 203d
00000040: 7a0b bdbc 6ff7 3ebd 7cdb 35bd 4ff8 4b3d
00000050: ea8f 913c 8efe b2bc 4873 21bc 17d7 153d
00000060: 5d19 33bd c83c e03b d7c4 473d 4683 f43c
00000070: 6332 1b3d 1328 693d f4b5 263c 2c20 663c
-0.032306805 -0.02243866 0.056782965 0.020392578 0.013008673 -0.02958805 0.02648246 -0.030800678
-0.03323572 -0.022514265 -0.024734925 0.0026481412 0.030401047 -0.058591664 0.02843057 0.039090533
-0.023076762 -0.04662269 -0.04439877 0.049797352 0.017768819 -0.021849897 -0.009854145 0.03658208
-0.04372536 0.006843183 0.048771705 0.029847752 0.03788985 0.056922983 0.010175217 0.014045756

decoder.4.weight f4 [3, 32, 3, 3]
00000000: 0e5a de3c a3d5 47bd d9d0 47bd e90f 403d
00000010: 9615 b33c 52cf 823c e2bc c73c bacb 913c
00000020: 4497 5b3c 00c1 0abd 721a c03c 4404 4ebd
00000030: b6a7 02bd 002d 20b9 856f 373d 5e2d 52bd
00000040: 0952 423d e0ed 91bb f0d8 14bb a66a 26bd
00000050: 7009 e4bb 8c60 183c fc29 46bd 44be 3d3c
00000060: b65c c03c ef72 623d 58e5 1fbd 80e3 66bc
00000070: 9c17 65bc eca8 98bc 8172 383d 80f3 a5bb
00000080: 9f41 553d 0baa 3b3d 4ed1 dfbc 7cf9 623c
00000090: 02ad d8bc fd24 0e3d 9444 10bc a068 12bd
000000a0: 6986 5fbd 42ef a63c 803a 15ba 3462 223c
000000b0: d867 7fbc 49d9 183d 7aaa 973c a15c 0f3d
000000c0: 50b8 5ebc 67e5 693d c933 083d da59 ca3c
000000d0: 02af e53c 06e6 54bd d865 69bc dc94 263c
000000e0: a241 893c d32b 0abd b6b4 4abd c0b3 c1bc
000000f0: 1043 0fbb 6418 743c ab7e 5d3d 56cb 1ebd
00000100: e594 343d d824 a7bb 06fa 22bd 7236 c2bc
00000110: 00e6 a5bb 842c 23bc 1189 693d f0b5 52bd
00000120: 7f95 6ebd 405c 563a dc00 233c 6cac 30bd
00000130: 742c 79bc 40da e5bb f477 12bd 6aad 843c
00000140: 79e0 243d 7ddb 2c3d 9f6d 4b3d 1cd8 373c
00000150: 3421 25bc 68ab 2ebc 40b2 acba d94a 45bd
00000160: eeca a03c b39f 5abd f139 21bd 1c67 fcbc
00000170: b595 58bd 7865 adbb bcb9 113c c85c c3bb
00000180: 0094 c839 f0af 3bbd b621 863c 98dd d2bc
00000190: e148 0f3d 690c 583d ed3e 663d 821b ba3c
000001a0: ebfc 6dbd 582e 863b b6e6 e43c ff49 153d
000001b0: a4b0 333c ca59 863c 03c6 f0bc 7f69 1d3d
000001c0: 3255 8a3c 47e9 623d 669c c93c 743d 2ebd
000001d0: 61d1 1d3d 2aa0 ad3c 3749 073d b052 3abb
000001e0: 4f3f 6c3d 4667 16bd 006c c2b8 7b13 38bd
000001f0: 1eaa 953c 3227 c1bc e831 52bc 3c26 2dbd
00000200: 7840 fb3b 886e 2bbd c3dc 043d b4a1 e3bc
00000210: 4464 53bc c4e4 44bd 23b5 153d c32d 413d
00000220: 1c24 703c 66db f13c b6e5 1abd 3588 473d
00000230: 39dd 623d 3acf 853c 8abc a43c 4855 aa3b
00000240: 8eb1 11bd 12fe aebc 0b2d ffbc 49c5 643d
00000250: b8aa 28bd fc89 7ebc 218e 583d 99bf 2e3d
00000260: d52b 103d 8279 bebc 818f 5c3d 6080 0c3b
00000270: 2245 2dbd 1ac9 b33c 5e5a d93c c58b 65bd
00000280: 7dac 1e3d 25c1 fabc 6aa8 b13c 82b6 803c
00000290: 04c2 fbbc 2cdf 453c be13 e33c 9b63 57bd
000002a0: b1ce 0e3d 604d 54bb 4224 68bd 4aa4 8e3c
000002b0: 7c18 213c 4898 9bbc bc49 45bd f046 4bbc
000002c0: e337 3c3d 8e95 bbbc 20df afba ae61 a83c
000002d0: eed6 54bd 9c65 40bd ac98 283c c091 efba
000002e0: a79f 55bd 8f76 1a3d 8db3 6ebd bdca 683d
000002f0: 2fa1 1a3d 34bb 4e3c f7aa efbc e309 243d
00000300: e91a 563d 415d 4d3d d265 d6bc 4e81 e13c
00000310: ae62 df3c 1341 6e3d 83bd efbc 2cb0 373c
00000320: 3031 05bd 7063 25bb 638a 453d de3f 14bd
00000330: b2e5 db3c 4885 4cbc 05c5 5d3d 588b ce3b
00000340: 474c 003d 3d1e 1f3d b773 fbbc dac7 d53c
00000350: f0c2 163b 926b 06bd ca8d c73c 9a3c a93c
00000360: 3bdd 0c3d a6e7 2fbd 803d d1ba 11b9 113d
00000370: 2ca5 9cbc 054e 4b3d efad 5fbd 60fc cfbc
00000380: 3094 d1bc cac9 bf3c d4a9 52bc b848 3abd
00000390: 5c4f 563c c49d 503c 2a30 8e3c 8bfe 493d
000003a0: 7c59 e0bc 3fe6 0f3d 0065 9fba 484c 31bd
000003b0: b229 f13c 7b7c 163d d892 afbb 10be 02bd
000003c0: 46e5 8f3c 6c6c 2abc ce8f c73c dcf3 5cbc
000003d0: efe2 553d 2357 033d cb2e 473d a478 dabc
000003e0: 08c3 23bc 28a0 9d3b 57b3 35bd 7297 abbc
000003f0: fcce 6b3c 3086 21bb 8388 6b3d a7e5 efbc
0.02714255 -0.048787724 -0.048783157 0.046890173 0.021860879 0.015967999 0.024382059 0.01779734
0.013402764 -0.033875465 0.02345011 -0.050297037 -0.031898223 -0.00015275553 0.044784088 -0.051312797
0.047441516 -0.0044534057 -0.0022712313 -0.04062905 -0.006959133 0.009300362 -0.048379883 0.011581007
0.023481708 0.05528539 -0.03903708 -0.014092326 -0.01398268 -0.018635236 0.045031074 -0.005064428
0.052064534 0.045816462 -0.027321484 0.013853427 -0.026449684 0.034703244 -0.008805413 -0.03574431
-0.054571543 0.020377759 -0.0005692616 0.009911109 -0.015588723 0.037316594 0.018513907 0.035000447
-0.013593748 0.05710354 0.03325251 0.024701048 0.028037552 -0.05197718 -0.014245473 0.010167327
0.016754929 -0.0337332 -0.049488746 -0.023645282 -0.002186004 0.014898393 0.054075878 -0.038768135
0.04408731 -0.0051008277 -0.039789222 -0.023707602 -0.0050628185 -0.009959344 0.057015482 -0.05144304
-0.05824804 0.00081771985 0.009948935 -0.043133184 -0.015208352 -0.007014543 -0.035758927 0.016195972
0.040253136 0.042201508 0.04966509 0.011220958 -0.010078717 -0.010660984 -0.0013175681 -0.048167083
0.019628014 -0.053374957 -0.039361898 -0.030810885 -0.052877147 -0.005291637 0.00889438 -0.005961988
0.0003825724 -0.045822084 0.016373497 -0.02574043 0.034981612 0.05274621 0.056212354 0.022718195
-0.05810253 0.00409488 0.027942043 0.03644752 0.010967407 0.016400237 -0.029391294 0.038430687
0.016886327 0.05539825 0.02461071 -0.042539075 0.038529757 0.021194536 0.033028807 -0.0028430633
0.057677563 -0.036719583 -9.2707574e-05 -0.044940453 0.018269595 -0.02357826 -0.012829281 -0.04227279
0.0076675974 -0.041853458 0.032437097 -0.027787067 -0.012902323 -0.04806973 0.0365497 0.047162782
0.014657047 0.029523563 -0.037816726 0.04871388 0.055386756 0.016334165 0.020109434 0.0051981546
-0.03556972 -0.021361385 -0.031149408 0.05585221 -0.041178435 -0.015535828 0.05286992 0.04266319
0.03519805 -0.023251299 0.053847793 0.0021438822 -0.04230226 0.021946479 0.026532348 -0.056041498
0.038738716 -0.030609677 0.021686751 0.015712027 -0.030732162 0.012077134 0.027719375 -0.052585226
0.034865085 -0.0032394752 -0.056675203 0.017412324 0.009832498 -0.018993512 -0.04816602 -0.01240705
0.045951735 -0.022898462 -0.0013417937 0.02055439 -0.051962785 -0.046971902 0.010290306 -0.001827769
-0.05215421 0.037710723 -0.0582767 0.05683397 0.037751373 0.012617875 -0.029256327 0.04004849
0.052271757 0.050137762 -0.026171599 0.027527478 0.027268734 0.05816753 -0.02926517 0.011211436
-0.032517612 -0.0025236271 0.04822768 -0.03619372 0.026842926 -0.012482949 0.05414297 0.006303232
0.031322744 0.038847197 -0.030694826 0.026096273 0.0023004375 -0.03281743 0.024359602 0.02065878
0.03439067 -0.042945527 -0.0015963763 0.035576884 -0.019121729 0.049634952 -0.054609235 -0.025388896
-0.025583357 0.02341165 -0.012857873 -0.045479506 0.013080444 0.012732927 0.01735695 0.049315017
-0.02738642 0.03513169 -0.0012160838 -0.043285638 0.029438827 0.036739808 -0.0053580813 -0.03191954
0.01756538 -0.010401826 0.024360564 -0.013485875 0.052218374 0.032065522 0.04862861 -0.026668854
-0.00999523 0.004810352 -0.044360485 -0.020946238 0.014392611 -0.0024646632 0.057503235 -0.029284311

decoder.4.bias f4 [3]
00000000: d0a2 03bb be80 d33c b3c5 22bd
-0.0020086057 0.025818225 -0.039739322
