Models_dump/product_classifier.pth (torch, 386746 bytes, 20 tensors)

net.0.weight f4 [32, 3, 3, 3]
00000000: d9a9 013d 3766 38bc b7c3 5b3d 1fe8 433e
00000010: 4565 cabd dd84 4f3e 2d8d 733d 1afc 993d
00000020: 0e06 f03d d18c 943d 14b6 9ebd 2a59 40be
00000030: ab3e 873d e16b 23bd e1dd d2bc 936a 963d
00000040: 10c3 4cbd 1a8a b3bd ea5c 0a3c 7cf7 f63d
00000050: 57d2 a9bd 048e 5fbd deca dabd 152c ab3d
00000060: 4214 24be a546 933d afb0 bebd fc4d 41be
00000070: 87d0 31be db44 b93d ba2f e23b cccf 813d
00000080: 096f 1cbe a8ac 8c3d 35b2 173e 03c0 123c
00000090: 7cee 333e 208c f6bc 9afd 10be 1150 233e
000000a0: 0767 27be fea0 91bd d4ab a63d d4c1 52bd
000000b0: 2171 913d 0a72 39be dd49 2fbc 48f7 1c3e
000000c0: 7569 8ebd 7f57 85bd 0d83 013e 73db f0bd
000000d0: 0484 f53d 3e1a 2e3e 68b2 21be bdd7 243e
000000e0: 9e78 463e bdcb 11bd fc9e 14be 3e6f b53d
000000f0: 8f4b 943d b8ab 4ebc 0ecd 01be 50e2 57be
00000100: ed23 83bd a828 583c b4ef 663b 2481 9b3d
00000110: 4b34 083e 145b 3dbe ee55 513e 53b3 123e
00000120: 26a9 113e 0652 b9bd 0463 9f3c 2cd9 053e
00000130: b3c7 fb3d 5d5f 19bd 1ba1 e23d 5224 b03d
00000140: 7ab9 7a3e 66e3 f9bd 9a78 253e ade0 063e
00000150: a045 ec3d 995d 26be 76ae 26be e2ef fa3b
00000160: cdad 2f3c 4407 d6bd d532 983d 0012 913d
00000170: bc24 febd 2b61 cebd 7942 483e 9679 c53d
00000180: 702a d33d c999 5d3d 5f0e 04be 3985 63bd
00000190: dc2b a2bd bd33 2a3e 6e5f 1f3c a0bf 0fbe
000001a0: caaa 033e 297d 403c c918 f03d 24eb 193e
000001b0: 2051 bdbd a4a7 05be b479 c7bd 1dab 053e
000001c0: 5f1f 3bbe b64e 0cbd 864c 56bd 4f36 033c
000001d0: 31ba 30be 92fa cc3d b850 1dbe 7475 113e
000001e0: 0e8e cebd 26ab 02be 09df ef3a 15d4 8b3b
000001f0: 5602 cdbd 40db 253d 141b 67bd 3e09 1c3c
00000200: f073 0f3e eb75 15bd d473 f83d be58 863d
00000210: 4390 7dbc 230a 593e 86a7 e03d 6aed d6bc
00000220: de35 e6bc c7bf 8cbd aa9c a2bc 46db 1cbe
00000230: f0da 35be 8a1f b7bc 5a9c fe3d 2234 ccbd
00000240: fb3f 84bd 5086 39bd 4f79 f5bd 237b dcbd
00000250: e1f3 283e 7f3d 75bd 7419 193e a879 9cbd
00000260: 703e e4bd 795e 023e de06 1f3e a7d1 c53d
00000270: 2c37 20bd 4dea e4bd 8b68 053e 7cde e83b
00000280: 551f 14be 7175 b33d b7d2 d33c 612c 9c3d
00000290: 0dcd 50be ae16 ec3d 5150 2ebe 083b bcbc
000002a0: e9b8 36be 2642 46bd 7eab f5bc 0f94 913d
000002b0: 000d 393e bbf9 05be 8430 9a3d ec2a 353d
000002c0: bef6 2dbd fbf0 e6bd 930d 923d 0462 48bd
000002d0: 5dc9 333e 2675 d83d bc93 02be f8a7 353e
000002e0: e86a 193c fdfe 48be 6991 39be 73c1 0e3d
000002f0: ceb5 3dbc 7375 26be b06c cdbc 2791 0b3e
00000300: 618f 43be 0d8a 0a3e 2376 2dbe a32d b33d
00000310: 46d6 0c3e 983d 7f3d a506 013e 338b 26be
00000320: d252 b9bc b3dd 4ebe bbf4 e7bd 91d9 603d
00000330: 26b4 c2bb 4110 fabd 8d2d 943d 6304 60bd
00000340: cb0a babd 7da4 d53d 2147 243e 38ba de3d
00000350: 8b04 04be 6cbe 0dbe b810 23bd b95f 0fbe
00000360: 38ab 12be 8da1 1e3e de42 0bbe 49df ea3d
00000370: ae05 3a3d 07f9 90bd 54fe 15be ba1c 1c3e
00000380: ca5a e7bd 330b 80bd 49c3 4bbc be43 e8bd
00000390: 3a89 edbd b221 58bc 885e 203e 0935 0abd
000003a0: dc29 18be b07f c8bd 413c 5dbe d2cf 163e
000003b0: 1a40 26be 2754 39be 1ee0 d9bd 274f 77be
000003c0: da1d 6bbe da77 0dbe 158a 2ebe 0cb0 b63d
000003d0: f725 0a3e 3005 263e 2940 473e d78b 953c
000003e0: fa07 00be dec3 ab3d bdaf 20bd 2771 283e
000003f0: 01f5 873d 33b5 69be 7389 a7bd 5435 5abe
0.03165612 -0.011254839 0.053653445 0.19131516 -0.09882597 0.20265527 0.059460808 0.07518788
0.11719905 0.07253421 -0.077495724 -0.18784013 0.0660375 -0.039897803 -0.025740566 0.07344546
-0.049990714 -0.08766575 0.008445004 0.12058923 -0.08292072 -0.054578796 -0.10683225 0.08358017
-0.16023353 0.07191209 -0.093110435 -0.18877405 -0.17364703 0.09046336 0.006902662 0.06338462
-0.15276732 0.06868869 0.14814074 0.008956912 0.17571443 -0.030096114 -0.14159241 0.15948512
-0.16347896 -0.07110785 0.08138242 -0.05145438 0.07101656 -0.18109909 -0.010698763 0.15328705
-0.06953708 -0.06510829 0.12647648 -0.117606066 0.119880706 0.17002198 -0.15790713 0.16097923
0.1938195 -0.03559469 -0.14513773 0.088591084 0.07240974 -0.012614183 -0.12675878 -0.21082425
-0.06403337 0.013193287 0.003523809 0.07592991 0.13301198 -0.18491775 0.20442936 0.1432622
0.14224681 -0.09048848 0.019456394 0.13071126 0.12293949 -0.03744446 0.11065885 0.086006775
0.24484816 -0.12201576 0.16159287 0.13171645 0.115367174 -0.16246642 -0.16277489 0.007657991
0.01072259 -0.104506046 0.074315704 0.07083511 -0.1240935 -0.10077127 0.19556607 0.09642331
0.10310829 0.05410174 -0.12896107 -0.055546973 -0.07918522 0.16621299 0.009727342 -0.14037943
0.1285812 0.0117485905 0.117234774 0.15031105 -0.09243989 -0.13052231 -0.0974001 0.13053556
-0.18273686 -0.034254752 -0.052319072 0.008008554 -0.17258526 0.1000873 -0.15362823 0.14204961
-0.100856885 -0.127606 0.0018300723 0.0042672255 -0.10010211 0.040492296 -0.056422308 0.009523688
0.1400907 -0.03648941 0.121314675 0.06559895 -0.015476289 0.21195273 0.109694526 -0.026236255
-0.028101858 -0.06872516 -0.019850094 -0.15318021 -0.177593 -0.022353906 0.124321654 -0.09970881
-0.06457516 -0.045294106 -0.119860284 -0.10765674 0.16499282 -0.0598731 0.14951116 -0.076403916
-0.111447215 0.12731351 0.15529963 0.09659129 -0.039115116 -0.11177502 0.13028161 0.0071066003
-0.14465077 0.087626345 0.025857313 0.07625652 -0.2039072 0.11527763 -0.17022826 -0.022977367
-0.17843975 -0.048402928 -0.029989 0.07108318 0.18071365 -0.13083546 0.07528785 0.044230387
-0.04247164 -0.11276432 0.07131495 -0.0489216 0.17557283 0.10569219 -0.12751669 0.17739856
0.009363867 -0.1962852 -0.18121876 0.034852456 -0.01157899 -0.16255741 -0.02507624 0.1362959
-0.19097663 0.13529225 -0.16939597 0.08748939 0.13753614 0.0623146 0.12600191 -0.16264038
-0.0226225 -0.20201759 -0.113259755 0.054894987 -0.0059418855 -0.122101314 0.072352506 -0.054691684
-0.0908409 0.10431764 0.16042759 0.10875362 -0.12892358 -0.13842171 -0.039810866 -0.14001359
-0.14323127 0.15491314 -0.13599727 0.114683695 0.045415573 -0.07078748 -0.146478 0.15245333
-0.112966135 -0.06252136 -0.012436696 -0.11341046 -0.115984395 -0.013191627 0.15661061 -0.033741985
-0.14859718 -0.097899795 -0.21605016 0.14727715 -0.1623539 -0.18098508 -0.1063845 -0.24151288
-0.22960606 -0.13815251 -0.17044862 0.08920297 0.13491045 0.16212916 0.19458069 0.018255157
-0.12503043 0.08386968 -0.039230097 0.16449414 0.06638528 -0.22823028 -0.08180513 -0.21309406

net.0.bias f4 [32]
00000000: 62ee f1bd c3e3 013e 4ff6 0a3e 4c59 dfbc
00000010: a199 f0ba bce8 32be 0989 abbd 7f04 09bc
00000020: 1936 c83d 796b 393d e9d7 2dbc ba04 183d
00000030: a24d c83d 762f 073e a331 3b3e 52e5 b1bd
00000040: 57f5 7fbd 682f d2bd 2382 13bd 144b 53bd
00000050: 88cb edbd 7a20 bbbd 4ce7 c2bc f057 e1bd
00000060: e565 cbbd ce7e 4e3e 0707 4abe 080c a0bc
00000070: ed16 eebd 7bd1 49be c0a1 2d3e 9cd5 913c
-0.11813046 0.1268454 0.13570522 -0.02726426 -0.0018356332 -0.17471594 -0.08375747 -0.008362888
0.09775943 0.04526851 -0.010610559 0.037113883 0.09780432 0.13201699 0.18280654 -0.086863175
-0.062489834 -0.10262948 -0.03601278 -0.051585272 -0.11611086 -0.09137054 -0.023791932 -0.11003101
-0.09931544 0.2016556 -0.19729243 -0.019536987 -0.116254665 -0.19708817 0.16956234 0.017802052

net.1.weight f4 [32]
00000000: 6e6d 773f fe79 703f 2d9b 6f3f 8a2f 703f
00000010: e03d 883f beb6 7f3f 8d2d 803f 62eb 803f
00000020: 7c1d 853f bfb9 763f fafe 743f 5df9 813f
00000030: 2502 8a3f f2f4 793f 8925 723f f48a 7f3f
00000040: ca7d 783f 0bd8 793f cf55 873f f27b 873f
00000050: 2ad5 7a3f dc2c 863f 5403 803f 3909 6d3f
00000060: b1a5 7b3f d76e 843f b2a8 863f 1aa6 713f
00000070: 6764 873f 963d 783f 896f 823f c6f6 7c3f
0.9665135 0.93936145 0.93596154 0.9382254 1.0643883 0.9988822 1.0013901 1.0071833
1.0399623 0.96377176 0.95701563 1.0154225 1.0781904 0.9763938 0.94588524 0.998214
0.9706694 0.9759528 1.0573062 1.05847 0.9798151 1.048244 1.0001016 0.925922
0.982997 1.0346326 1.0520232 0.94394076 1.0577515 0.9696897 1.0190288 0.98814046

net.1.bias f4 [32]
00000000: e770 0ebd 05f6 adbd ca10 f9bc 90f2 82bd
00000010: e919 313c f72c 89bb 8ef9 a0bd e92f 56ba
00000020: 3b87 fc3c ce2c 2cbc 48b8 4fbd 0ebc 2b3d
00000030: 0f40 94bc 2845 a1bd 9099 a0bd 4f6c f73c
00000040: bf37 02bd faba 44ba d729 aebd e150 10bd
00000050: cb5b 30bd a4c7 b6bc f908 393c 832c 6ebd
00000060: 2cac 213a 14ce 9b3c 88f3 17bd af5e 35bd
00000070: 3348 2ebc 8340 55bc faff 92bd 6161 3abc
-0.03477564 -0.0849419 -0.030403513 -0.063939214 0.0108094 -0.0041862684 -0.07860099 -0.00081705913
0.030826202 -0.010508729 -0.050712854 0.04192739 -0.018096952 -0.07874519 -0.0784179 0.030203013
-0.031791445 -0.00075046683 -0.08504074 -0.035233382 -0.04305629 -0.022311993 0.011293643 -0.05814792
0.0006167318 0.019019164 -0.037097484 -0.04427975 -0.010637331 -0.013015869 -0.0717773 -0.011375756

net.1.running_mean f4 [32]
00000000: 243e 01bd 5b22 023e 61a2 e23e 8a9b de3d
00000010: 98f0 09be df5f b4be b7c3 66be fff9 55be
00000020: f117 0ebf 9f2a 453e 2820 523e 0a6a 373e
00000030: d6c8 d83d 0bb9 843e 1c88 0a3f 1170 b43c
00000040: f905 f1bc 0529 1bbe ed2e 01be 6174 fd3c
00000050: 84c0 76be 304b 8ebe 57fd 9dbe e54b 9cbe
00000060: db20 933c 9260 a0be 6aa2 b1be e373 7d3e
00000070: 0155 1fbe 73ad 92be 6312 843e 99a9 b0bd
-0.031553403 0.12708418 0.4426451 0.108695105 -0.13470685 -0.35229394 -0.22535597 -0.20896147
-0.5550528 0.1925454 0.20520079 0.17911544 0.105851814 0.25922427 0.54113936 0.022026094
-0.029421793 -0.15152366 -0.12615557 0.030939283 -0.24096876 -0.2779174 -0.30857345 -0.30526653
0.017960003 -0.31323677 -0.34694225 0.24751239 -0.1555977 -0.28647956 0.25795278 -0.08626098

net.1.running_var f4 [32]
00000000: d696 883b 65ab a13a 6513 503d e346 3e3c
00000010: e222 0a3c 3ecd 5b3c 7021 193c 5876 b23c
00000020: 37cc 603e 0dd8 1d3c 62ee f23c cc8e 993c
00000030: 6a74 153b f6eb 373c 063b 873d 3876 263c
00000040: f5a4 1c3c 32a0 443b 9bc2 a13b 294a 1e3b
00000050: 4c1d 1f3c 7f49 863c 735e 293d 22b0 893c
00000060: 7dcd 163c c306 023e 3a72 1f3c 473f 3b3d
00000070: 2254 6f3b ad38 a03b e6cc 7d3b 7930 c13b
0.0041683717 0.0012334405 0.050799746 0.01161358 0.008431168 0.013415633 0.009346351 0.021784946
0.21952902 0.00963403 0.029654685 0.018744849 0.0022804984 0.011225691 0.06603055 0.0101600215
0.009560813 0.003000271 0.004936529 0.002415309 0.009711575 0.016392468 0.04134984 0.01680762
0.009204266 0.12697892 0.009731824 0.045714643 0.0036518653 0.004889569 0.0038726865 0.005895671

net.3.weight f4 [64, 32, 3, 3]
00000000: 222f 6b3b 59b2 e73c 98e3 93bd 42eb 143d
00000010: 78b0 82bd 2678 123d 8082 5fba f9ce e8bc
00000020: dce3 1f3d a117 6b3d a0e0 473d 6a3b eebc
00000030: 998e abbb 369c 0b3b ee15 87bc 4f24 a6bc
00000040: 51ef c2bb 616e 78bd fb6f 4cbd 04c1 fd3b
00000050: c70a 87bd 72a1 473d cf39 39bc 8c04 513c
00000060: 6a60 c83b bcec f53b 0c54 81bb 4863 b3bc
00000070: 9ccc 3e3c 0888 c13b c066 5bbd a3e2 373d
00000080: 9a87 503d 3a81 33bd d214 12bd 52d0 60bd
00000090: f461 b63c 8f44 32bd fe7a 38bd d5be 08bd
000000a0: 4c33 cebc 18ea 243c 77df 4abd a3b1 c9bd
000000b0: e461 113c b68e 1a3b b929 103a b36c 3ebd
000000c0: 2dd6 ca3c e9c9 3d3b da4f 54bd 4f00 77bc
000000d0: 542e 7fbc acf0 8cbd 3322 823d e0da 0a3d
000000e0: c06f 493c a9c6 8abd cbbf 69bd d655 57bd
000000f0: 1400 02bd 57f9 30bd 081b 74bb fd63 00bd
00000100: b457 d3ba 6c41 ad3c ed0e 113c 93b3 75bd
00000110: 2603 b53c 1867 6dbd bdc9 43bd c7fe 673c
00000120: cf86 2fbc d7cd 5ebc 9795 5fbd 5db9 2ebd
00000130: 76e7 7cbc 0f37 7abd dd46 eebc a0ec 0e3d
00000140: 673f ad3b a1ff 113d fd3e 023c 9fb8 0cbd
00000150: d4be 82bd b3f2 74bd 868e a5bc da23 ca39
00000160: 4275 81bd d0ff 02bc 7a2b 3bbd 12e2 6abd
00000170: 3478 08bc 67b1 3b3c 81bc 1d3d 5609 493d
00000180: 2a43 373c 0e7f 523d a1c5 f0bc 7142 3b3c
00000190: 56d4 5b3c bec8 68bd dfb4 c3bd a5df 883c
000001a0: 4447 b5bd 9deb 8bbd 9935 7dbd 118c 1a3d
000001b0: c629 133d 547d 30bd d346 80bc d96d 8d3d
000001c0: 392d 763d e5cf 623d 3ef8 6b3b aa00 373d
000001d0: 10bb 83bd f305 56bd be20 a2bb 43d5 5e3c
000001e0: d33f 16bd 4200 d43b 2264 80bd 479b e1bc
000001f0: 281a 2f3d b3ac 80bd d843 d33c 0992 81bd
00000200: e9c5 2c3d fca5 f83c 6aed f83c f6d5 2f3c
00000210: 1100 3dbd 5547 d0bc d0dc 84bd 3509 38bd
00000220: c19a f9bc c202 c83c 8d17 d43c 6d87 babc
00000230: 7424 283d 2195 0d3d e610 66bd 70ec 9a3c
00000240: f3c3 4dbb 3971 123d f94c cb3b 1e37 3bbd
00000250: d130 093d f7fc cebb c678 35bc 51ff 413c
00000260: dcee 02bc 17ab 49bd 9cb3 303d 3511 aebb
00000270: 5a8c 86bd 97ed 1bbd 0b93 9abd f91c 813c
00000280: 78ca 183d 836f 34bd d42f fc3c 9664 583d
00000290: 85f9 723d e9e4 88bb 0d50 c33d 5a40 673d
000002a0: e555 b13d d906 85bc 881d d13b bd5b 90bd
000002b0: 4791 30bb b9f0 64bd 9c4e 843c cac4 5cbd
000002c0: 9de8 a23c f8d9 113d f936 3b3c e6de 47bd
000002d0: 3e77 6ebc 7fd3 ddbc 75f9 5c3b e512 163d
000002e0: 3b2c f6bc 3f6e 3e3d f8d4 b2bb 1975 a93c
000002f0: 0a92 e13b 3c0d 503d 9265 253b dd4e 1dbc
00000300: 488c 4dbd cf22 fb3c 4792 4fbd 1411 613d
00000310: f9fb 673d ebe3 fd3c 8fe5 293b 4b9a 76bd
00000320: f4a2 463d 5693 8ebc 2784 e5bc 3a6f eb3c
00000330: 33e7 ae3c cddf 6bbd c456 a5bb 3a06 ad3b
00000340: 43f4 99bc 5a18 15bd f0e6 7fbd 6131 b5bc
00000350: 1674 19bd 3137 1f3d 4da4 cc3b c954 773c
00000360: 31c5 39bd 57a0 473d 9fe0 b23c f877 25bd
00000370: 3f91 173c ee87 3d3c 6c85 34bd c45a 5e3c
00000380: 035d 903c e588 69bc b811 c1bc a2db c4bc
00000390: ec6d a1bd 82f6 a0bc 9564 abbc 1b6e dd3b
000003a0: c98b 3abd fe5f 35bc cddd c33d 4f64 a23c
000003b0: 1238 bf3d 9d65 c93c 92a1 453d e6b9 e5bc
000003c0: 013e a3bc 9fc0 193d e1ce 27bd 889f 20bd
000003d0: 93cf 693c 2cc4 ee3c a017 d3bc d73f b33c
000003e0: 0eea 45bd 8011 05bd 90c4 0fbd d90d 7fbd
000003f0: 0e30 813d af7e e53c 9760 1dbc 0988 743d
0.0035886248 0.028283285 -0.072211444 0.03635717 -0.06381315 0.035759114 -0.0008526221 -0.028419005
0.039035663 0.05739558 0.048798203 -0.029081065 -0.005235505 0.0021302826 -0.01648995 -0.020280985
-0.005948939 -0.06065214 -0.04991148 0.0077439565 -0.065938525 0.04873795 -0.011305287 0.012757432
0.006115009 0.0075050276 -0.0039467867 -0.021897927 0.011645462 0.0059061088 -0.053564787 0.044893872
0.05091057 -0.043824412 -0.035664387 -0.05488617 0.022263505 -0.043522414 -0.04503917 -0.033385117
-0.025170945 0.010065578 -0.04952952 -0.09848335 0.008873437 0.0023583598 0.0005499381 -0.046490382
0.02476033 0.002895946 -0.051833965 -0.015075757 -0.01557501 -0.06881842 0.06354179 0.03390014
0.01229471 -0.06776173 -0.057067674 -0.052572094 -0.031738356 -0.04320654 -0.0037247557 -0.031345356
-0.001612416 0.02114936 0.008853656 -0.05998571 0.022096228 -0.057959646 -0.047799814 0.014159865
-0.010713293 -0.013598881 -0.05458602 -0.042657245 -0.015436044 -0.061087664 -0.029086525 0.034893632
0.005287099 0.035644177 0.007949588 -0.034355756 -0.06384054 -0.05980177 -0.020209562 0.00038555154
-0.06321193 -0.007995561 -0.04569576 -0.057344504 -0.00832944 0.01145587 0.03850985 0.04908117
0.011185447 0.0513907 -0.029391112 0.011429415 0.013417324 -0.056832068 -0.09555983 0.016708205
-0.088514835 -0.06832049 -0.061818693 0.037731234 0.03592851 -0.043088272 -0.015658772 0.069057174
0.06010172 0.055374045 0.0036006118 0.044678368 -0.06432164 -0.052251767 -0.004947751 0.01360065
-0.03668196 0.0064697573 -0.06269099 -0.027539862 0.042749554 -0.0628294 0.025789186 -0.06326682
0.04218093 0.030352585 0.030386645 0.010732165 -0.04614264 -0.025424639 -0.06487429 -0.044930656
-0.0304693 0.024415378 0.025890136 -0.022769654 0.04105039 0.03456605 -0.05616846 0.01891157
-0.0031397312 0.03575251 0.006204244 -0.04570686 0.03349382 -0.006316777 -0.011076158 0.011840657
-0.007991519 -0.04923543 0.04314004 -0.00531211 -0.06569739 -0.03806838 -0.075475775 0.015760886
0.037302464 -0.04405166 0.030784525 0.0528303 0.05931999 -0.004177679 0.09536753 0.056457855
0.08658961 -0.016238617 0.006381694 -0.07048748 -0.002694206 -0.055893634 0.016150765 -0.05389861
0.01988631 0.03560826 0.011426681 -0.048796557 -0.014554797 -0.027078388 0.0033718024 0.036639113
-0.030050388 0.046491858 -0.0054575168 0.02068572 0.0068838643 0.05079387 0.0025237543 -0.009601322
-0.05018261 0.030656246 -0.05067661 0.054947928 0.056636784 0.030992469 0.002592418 -0.06020574
0.048495248 -0.01740424 -0.028017117 0.02873956 0.021350479 -0.05758648 -0.0050457437 0.0052802833
-0.01879323 -0.036400177 -0.0624761 -0.022118272 -0.037464224 0.038870994 0.006245172 0.015095898
-0.045354072 0.048736896 0.021835623 -0.040397614 0.009250938 0.011568053 -0.044072554 0.013571445
0.017622476 -0.01425383 -0.02356802 -0.02403051 -0.07882294 -0.019648794 -0.020921985 0.0067575104
-0.045543466 -0.01107025 0.095637895 0.019823221 0.093368664 0.024584586 0.04824979 -0.028042745
-0.019927027 0.037537213 -0.04096878 -0.03921464 0.014270681 0.029146276 -0.025768101 0.021881027
-0.048318915 -0.032487392 -0.035099566 -0.062269066 0.06307994 0.028014509 -0.009605548 0.059700046

net.3.bias f4 [64]
00000000: 1c23 453d 6b8c 3cbd dbf4 313d 0875 103a
00000010: 75a6 95bd f4ac d5bc 00a7 0d3c 693a 0fbd
00000020: e0e7 bcbc 0277 523d e526 563d 5361 4c3d
00000030: 1f66 923c 0546 f23c d908 d9bc 5f05 c6bc
00000040: 8bea b73a a208 c43c d4c1 553c d16b 62bc
00000050: 8cc3 0cbd cec4 bfbc 7dda fa3b b603 01bd
00000060: 3a09 0fbd 2a40 46bd fd37 013d bf56 f13c
00000070: 1807 68bc 9752 46bd c3d8 8b3d 9fee 0f3d
00000080: c4c6 57bd 3307 69bc bdff 49bd 85b1 8a3d
00000090: 1947 d23c 9663 c5bc 1503 2fbd 0361 8ebb
000000a0: 57f7 3f3d 40e9 693c 8955 85bd f3ce 1c3d
000000b0: 47ea 09bd 8365 973c cf08 613d 0617 223d
000000c0: e0d1 28bd aeaf 853d a3bd 8ebc 0cfa 4abc
000000d0: b16c 403d fa1d 223d 0b35 ef3b 0aab 6ebc
000000e0: 04e0 51ba d507 903c ca93 75bd 9b64 e5bc
000000f0: 746b 2a3c 22ab 10bc d810 863c cf1e ddbb
0.048129186 -0.04603235 0.043446403 0.0005510603 -0.0730714 -0.026083447 0.008645773 -0.034967814
-0.023059785 0.051383026 0.052283186 0.049897503 0.01787096 0.029574404 -0.026493477 -0.024172483
0.0014031691 0.023929898 0.0130467005 -0.013819651 -0.034366176 -0.023409273 0.0076554404 -0.03149768
-0.03492091 -0.048401035 0.031547535 0.02946031 -0.0141618475 -0.048418608 0.068284534 0.035139676
-0.052679792 -0.014222908 -0.049316157 0.067721404 0.025668668 -0.024095338 -0.04272755 -0.004345061
0.04686674 0.014276803 -0.06510455 0.0382833 -0.03367069 0.018481022 0.05494004 0.039572738
-0.041215777 0.06527649 -0.01742441 -0.012388717 0.046978656 0.03957937 0.0073000244 -0.014567146
-0.0008006098 0.01758186 -0.059955396 -0.028002074 0.010401595 -0.008829864 0.016365454 -0.0067480574

net.4.weight f4 [64]
00000000: cb6f 7d3f 6498 853f e2df 833f 6eb4 803f
00000010: 44a3 823f 8e57 763f 8885 813f b0f1 793f
00000020: a691 7f3f a0b8 753f 39bb 753f f515 833f
00000030: 6001 803f bd6b 813f db2e 803f 809b 743f
00000040: 46c9 7e3f efd3 7f3f effd 833f 3b19 723f
00000050: 87f1 703f aaad 833f da19 7d3f d645 893f
00000060: 93d3 8a3f e1ad 863f 0200 823f c885 7c3f
00000070: 5ea6 753f 2fa9 763f 5029 913f 40c2 793f
00000080: 1ebf 833f afa1 853f e5de 713f c00a 7e3f
00000090: 179c 7c3f 2063 773f 37de 823f 3078 723f
000000a0: c3cd 7a3f 970b 7e3f 1bea 7c3f 4adc 7d3f
000000b0: 2d19 7c3f 2d2a 823f 000b 813f 246f 853f
000000c0: 368d 833f 2d5f 793f fcff 813f 0835 7f3f
000000d0: 7d91 803f fd1d 743f f758 7d3f e745 703f
000000e0: ae1d 7a3f 1b01 833f adb9 803f d301 6d3f
000000f0: 78be 853f 2486 813f b6da 723f f112 843f
0.9899871 1.0437131 1.0302699 1.0055063 1.0206075 0.9622735 1.0118876 0.9763441
0.99831617 0.9598484 0.95988804 1.0241076 1.000042 1.0111004 1.0014299 0.95549774
0.9952587 0.9993276 1.0311869 0.9456975 0.9411854 1.0287373 0.9886757 1.0724437
1.0845817 1.0521814 1.0156252 0.98641634 0.9595698 0.96351904 1.1340733 0.97562027
1.0292699 1.0439967 0.94480735 0.99235153 0.98675674 0.9663563 1.0224065 0.9471464
0.9797022 0.99236435 0.98794717 0.9916426 0.98475915 1.0169121 1.0081482 1.0424542
1.0277469 0.9741085 1.0156245 0.99690294 1.00444 0.9535826 0.98963875 0.9385666
0.9770154 1.0234712 1.0056664 0.9258091 1.0448751 1.0119061 0.94864976 1.031828

net.4.bias f4 [64]
00000000: 7c16 74bc 9971 cebc 8178 903c 0ed4 f3bb
00000010: ebb6 a23c 7700 29bd c1ad 4fbc b495 03bd
00000020: 2f2a 013b b1bf 60bd e144 d2bd 3ed6 a1bc
00000030: 83d0 0ebd 676d 253d 1fa2 05bd b2b4 8fbd
00000040: 38f2 b5bd ba8f 88ba 6b44 90bc 6570 b8bd
00000050: f499 68bd b916 143d 0975 3bbc 1830 273c
00000060: 563d 173d abd0 bc3c 6329 77bd d601 18bd
00000070: 67d9 90bd c83b c4bd eed4 1dbd 2e57 d2bc
00000080: f407 1c3d 7c4a a5bc b200 adbd c064 7b3c
00000090: ce4d 9cbd 7350 7dbd c6a4 d93c 3bfd bbbd
000000a0: 4541 68bd dc20 f2bc 15d9 673c 52bc 15bd
000000b0: f08c 303c 27f7 323d cb2d 97bb 124a 1c3d
000000c0: bfa3 af3b dba7 b4bc e741 a7bd d1ed f0bb
000000d0: 9de3 6ebd 1603 90bd d5e0 94bc 993d 9fbd
000000e0: a995 5abc bcf2 2dbd 5289 d5bd 5f6e 9fbd
000000f0: 7c2c fb3c 3825 0b3d 9b9e 48bd 0913 debb
-0.014897939 -0.025200652 0.017635586 -0.0074410504 0.019862613 -0.04126021 -0.0126757035 -0.03212519
0.0019708981 -0.05487031 -0.10267044 -0.019755479 -0.03486682 0.040387537 -0.032625314 -0.07016887
-0.0888409 -0.001041881 -0.01761075 -0.090058126 -0.056787446 0.036154483 -0.011441478 0.010204338
0.03692373 0.02304872 -0.060342204 -0.037111126 -0.07072716 -0.09581715 -0.038533144 -0.025676336
0.038093522 -0.020177118 -0.08447398 0.015343845 -0.076320276 -0.0618443 0.026567828 -0.09179159
-0.05670287 -0.029556684 0.0141508775 -0.03655655 0.01077579 0.043692734 -0.0046136132 0.038156576
0.005360096 -0.022052696 -0.08166867 -0.0073525687 -0.058322538 -0.070318386 -0.018173615 -0.07775421
-0.013341346 -0.042467818 -0.104265824 -0.077847235 0.03066086 0.03397104 -0.048979383 -0.0067771715

net.4.running_mean f4 [64]
00000000: 2813 34bf 0fff 0f3f c0a6 8a3f b82e d23e
00000010: 260a babf 7c20 87bf 6c29 653f 193f b53e
00000020: 3e29 7bbf f141 643f 185f f13f dccd 5bbe
00000030: b456 b83f ad95 64bf ec81 553f 4a06 983e
00000040: bc28 0440 01de 423f e645 c4be 130f b83f
00000050: 89b7 a4be e1dc 6abf a11c 073e 1359 b43d
00000060: c822 cdbf a06a e2bf 32b5 c23f b3f4 15c0
00000070: 2af6 403f 79a7 3340 1614 8cbe 3002 30bf
00000080: 83da 67bf 0754 f13d b90f 52bf e458 64bf
00000090: 9765 61bf 2776 73bf 6fb2 b6bf b261 cdbf
000000a0: f095 27bf a932 bdbf 0ff8 6dbf cab8 0cbf
000000b0: e308 50bf 3b40 55bf f97f 4b3f ad85 97bf
000000c0: e807 43bf 45e5 6bbf 7153 f83f bc81 89bf
000000d0: 1ca7 94be d766 d7bf acd4 1ebe 12cc 043f
000000e0: e044 87bf 0656 353f 425a d83f 6ddf ec3e
000000f0: a8ec c9bf 642e e1bf 0a9e 013f 955a 9ebf
-0.7034173 0.56248564 1.0832138 0.4105127 -1.4534347 -1.0556788 0.8951633 0.35399702
-0.98109806 0.8916312 1.8857145 -0.21465248 1.440146 -0.8929089 0.8340137 0.29692298
2.0649862 0.7612 -0.38334578 1.43796 -0.32171276 -0.91743284 0.13194515 0.08806052
-1.6026239 -1.7688789 1.5211546 -2.3430603 0.75375617 2.8070967 -0.27359074 -0.6875334
-0.905678 0.11783605 -0.8205524 -0.89198136 -0.8804564 -0.9510216 -1.4273204 -1.6045439
-0.6546316 -1.4781085 -0.9295663 -0.54969466 -0.8126356 -0.8330113 0.79492146 -1.183767
-0.7618394 -0.9214671 1.9400464 -1.0742717 -0.29033744 -1.6828259 -0.15510815 0.51873887
-1.0567894 0.70834386 1.6902544 0.4626421 -1.5775347 -1.7592282 0.50631773 -1.2371393

net.4.running_var f4 [64]
00000000: f950 0c3f 13af 853e 39ab 0c40 2a5c 0d3f
00000010: 6e0d c33f 3ccc 903f e1d6 a63f 1140 ae3e
00000020: dd8a 853f 8499 a43e 24cf 3c3f f1e5 5f3e
00000030: eaf9 903e aeb9 4d3f 4ecc 9f3f 13d5 363e
00000040: 2993 ee3f 9eb8 de3f 9f35 713f d8ba 483f
00000050: 8b5e af3f eda9 e33e e19a c93e 53f6 1f3f
00000060: 4519 7540 47a0 3c40 69f3 1d3f 8944 8e3f
00000070: 4716 283e 8f53 ed3f bbc8 0a40 78d8 e03e
00000080: 3378 bd3e c2ba 2a3f e803 d240 b782 9b3f
00000090: 5cc8 153f a28f 363f da3a c83f 8aa3 b33f
000000a0: 4d28 303f 41fc 993f 6883 443f bb0f 5b3f
000000b0: b807 ab3e 4f4f 3c3f 6748 d13f 8bc8 2740
000000c0: 2afd e03f 200d 9e40 80e3 a43f de54 a33f
000000d0: ecc5 043f 38b8 993f f107 393f 655c ff3e
000000e0: f30a ed3f 269b 7b40 752c 133f 0431 793f
000000f0: 5235 943f bf90 bd3f e71f 2b3f 7b19 833f
0.54811054 0.26110134 2.1979506 0.55218756 1.5238473 1.1312327 1.3034326 0.34033254
1.0433003 0.32148373 0.7375357 0.2186506 0.2831567 0.8036145 1.2484224 0.17854719
1.863866 1.7400091 0.94222444 0.784101 1.3700727 0.4446558 0.39375976 0.62485236
3.8296673 2.9472826 0.6169954 1.1114665 0.16414748 1.8541125 2.1685016 0.43915153
0.37005767 0.6669122 6.562977 1.2149266 0.5850885 0.71312916 1.564296 1.4034283
0.68811494 1.2030107 0.7676301 0.8557088 0.33404326 0.73558515 1.635022 2.6216152
1.757726 4.939102 1.2881927 1.2760274 0.51864505 1.2009344 0.7227774 0.4987518
1.8518966 3.9313445 0.5748971 0.97340417 1.1578772 1.4809798 0.66845554 1.0242151

net.6.weight f4 [128, 64, 3, 3]
00000000: 434a ffbb b123 bb3c d267 e43a 35d4 c93c
00000010: 6d6d 58bc ebdb cf3c dd89 d93c f42d 7e3d
00000020: 082d 3a3d aeea 0abc 8a68 4e3b 6208 5c3c
00000030: e3f0 d8bb 957d 8bbc 85b7 99bc e560 1dbd
00000040: f34c e7bb 8405 383c 1c26 ecbc 4449 c3bb
00000050: 5ae7 5abc 5ca6 0dbd 22d0 27bd 7f7e 1e3b
00000060: ef1f fcbc b95a 433c 9803 a23b 3353 c63c
00000070: 61a3 4abb b549 8c3c 0b52 afbc bbaf 08b9
00000080: 240b ffbc 036c e03c b77e a43c 4e77 3c3c
00000090: 9b41 bebb d0c6 94bc 75bb 14bd c2cd bd3b
000000a0: 85ed 82bc 04f9 843c ebc9 1fbc ca40 86bc
000000b0: 0caf 52bc 754f 8cbb eca5 ffbc 7f61 febc
000000c0: 53b7 8bbb ba82 24bc 095c 87bc 016f 0e3b
000000d0: f84e c63c a247 7bbc cc02 debc cd90 c63c
000000e0: 48f9 30bd 58c3 c73c 8781 82bc 0d22 25bd
000000f0: bde1 933c f03a e9bc 7e17 46bd 0727 87bc
00000100: 803c 553d d090 d73c ed4a b4bc 69d0 a83c
00000110: 6fd5 4bbc 3293 163d 1a18 5a3c f150 003c
00000120: d834 d93c 0028 5f3d 46f1 913d 5fc6 a53c
00000130: 773e 3d3c 204e 903c d07b 7e3d c6e1 3a3d
00000140: 0fc3 f63c e4bf 07bd ae51 0bbd 0fe8 42bd
00000150: fbce 28bd 0339 e7bb be22 a5bc 44b3 10bc
00000160: 122e 1a3b 26ca a33c 968f 2d3d 3395 273d
00000170: 8623 923c 4f52 bd3c 4e27 2f3d 2ebf 8dbc
00000180: ca2c eabb dac6 02bb 2e4b 88bc 6f3b 53bc
00000190: e6e3 ce3c ef0d 7bbc c24b 43bd 96f1 01bc
000001a0: 45bb 02bd b0fc 8bbc b4ed fcbc 71b9 34bd
000001b0: ea52 af3c 4671 12bd 6ba0 c0bb ce8f 9b3b
000001c0: 6204 bcbc 309a 46bd 7d6c 99bc e07b 793c
000001d0: 57a0 11bd cc90 0a3d f834 023c a6a9 c3bc
000001e0: e824 21bd a601 1abd c4ad 0fbd 247f b53b
000001f0: c02b 9cbc 5822 35bd 0967 0cbd 9bc1 04bc
00000200: 2728 9fbc 50c8 c43a 76a1 a2bc 6059 373c
00000210: 05f6 17ba 0909 4cbd a3a7 f23b bd59 cbbc
00000220: e150 39bd bed6 e8bc 1ebf 2cbc ab39 c2bc
00000230: 2cba 07bd 7973 b13c 411e 3cbd 50da 16bd
00000240: 335f c4b9 cd1d 22bd 39da bdbc d0f6 fc3c
00000250: 0930 f53c 0157 293d be42 dd3c 27ad 113d
00000260: 5696 af3c 0d5a c23c 15d6 f6bb 893f 953c
00000270: 59a4 01bd 2881 dcbc 1f06 e43c a290 16bd
00000280: 1c91 31bd 609c d93c e412 1d3c 4e95 aa3c
00000290: 37d0 dbbc dbda 333d e77e 66bc ce7d 67bc
000002a0: abcc 893c 11f3 bcbb 0cab ab3c 4cd9 253a
000002b0: 42a3 b7bc 8166 453b 171c cf3c b797 08bc
000002c0: 8323 67bc 718f a83c 7ff5 d5bc 0229 eb3c
000002d0: 279a 2ebd ff60 83bc b139 903c c6c0 843c
000002e0: caea 5e3c 3234 22bd 1272 3dbb 35ff 07bd
000002f0: 1e04 c6bc 549d e93c 4c95 2f3c 7708 3e3d
00000300: 274c aabb 6709 4aba 346a 843d 464c 9d3c
00000310: e922 2f3d 5f3b 653d 165b 913c 1048 89bc
00000320: 6be4 4dba 0864 ddbb 81e6 82bc ae0e cbbc
00000330: bcf7 093d 155c ca3c 8bfb 83bc 905b 463b
00000340: 322e 8e3b b1d2 3ebc 3795 aabb 9cd7 c2bc
00000350: 8958 95bc 1877 85bc 4924 b63c 633b 26bd
00000360: 12e4 f83c cb61 18bd 1e69 fabb 3b83 c2bc
00000370: d477 25bd 349a f1bc ca6b 8fbc 110f e6bb
00000380: 1c37 ee3c 7abb b63c 745c 883c 3c49 f93c
00000390: 2479 fb3c fb30 a5bc 96b1 563d e037 243d
000003a0: 1098 87bc 28e4 e83b ba6c 1b3c ce3c 963c
000003b0: 03a8 bd3c 35c3 a53c 0692 1b3d 6e20 313c
000003c0: 5c18 e13c f1ca 07bd ef91 27bd 6449 ad3b
000003d0: 1400 253b a707 4f3d e380 8fbc 26d2 793b
000003e0: 8fbe 473d 8cbc 113b ca2d 9ebc c2c0 60bb
000003f0: 9df2 1cbd 8b50 0bbd 9996 993c dd46 89ba
-0.007790835 0.022844167 0.001742596 0.024637321 -0.013209683 0.02537342 0.026554996 0.062055543
0.0454531 -0.008478804 0.0031495416 0.013429733 -0.006620513 -0.017027656 -0.018764267 -0.038422484
-0.0070587336 0.011231784 -0.028826766 -0.0059596617 -0.013360823 -0.03458248 -0.040969975 0.0024184284
-0.030776946 0.011923485 0.004944276 0.024209594 -0.0030920135 0.01712499 -0.021401426 -0.00013035435
-0.031133242 0.027395254 0.020079954 0.011503054 -0.0058061606 -0.018161207 -0.036311585 0.0057923505
-0.015982399 0.016232021 -0.009752731 -0.016388316 -0.012859117 -0.004281933 -0.031207047 -0.03105235
-0.0042637973 -0.010040933 -0.016523378 0.0021733644 0.024207577 -0.015336903 -0.027100943 0.024238968
-0.043206483 0.02438514 -0.015930904 -0.040315676 0.018051976 -0.028470486 -0.048362248 -0.016498102
0.05205965 0.02631417 -0.022008384 0.02060719 -0.012441023 0.03676147 0.01331141 0.007831798
0.026514456 0.054481506 0.071260974 0.020236192 0.011550537 0.017615378 0.062129796 0.04562547
0.030122308 -0.033141986 -0.034013443 -0.04758459 -0.041213017 -0.007056357 -0.020158168 -0.008831803
0.0023525995 0.019993853 0.042373262 0.04091377 0.017839205 0.023110537 0.042762093 -0.017303076
-0.0071464526 -0.001995495 -0.016637411 -0.012892588 0.025255155 -0.015323146 -0.04767967 -0.007931134
-0.031916875 -0.017088264 -0.030875064 -0.044122163 0.021401841 -0.035752557 -0.0058784983 0.0047473675
-0.022951309 -0.04848689 -0.018728489 0.015227288 -0.035553303 0.033829495 0.007947199 -0.023884606
-0.039341837 -0.03759923 -0.035077825 0.005538838 -0.01906383 -0.044222206 -0.03427795 -0.0081028
-0.019428326 0.0015013311 -0.019852381 0.011190742 -0.00057968526 -0.049813304 0.0074052378 -0.024823064
-0.045243148 -0.02842271 -0.010543613 -0.023709139 -0.03313653 0.021661507 -0.04592729 -0.036829293
-0.00037454962 -0.0395792 -0.023175346 0.030879408 0.029930132 0.04134274 0.027009364 0.03556552
0.02143399 0.02372458 -0.007532845 0.018218772 -0.031650875 -0.026917055 0.02783495 -0.036759026
-0.043351278 0.026563823 0.009587023 0.020823147 -0.026832683 0.04390989 -0.014068342 -0.014129115
0.016821226 -0.0057662805 0.020955585 0.000632663 -0.022416715 0.0030120912 0.025281949 -0.008336953
-0.014107588 0.02057621 -0.026118038 0.028706077 -0.04262748 -0.016037462 0.017605634 0.016205203
0.013605783 -0.03960056 -0.0028907103 -0.03320237 -0.024171885 0.028517403 0.0107167475 0.04639479
-0.0051970663 -0.00077070895 0.06465569 0.01920141 0.042757902 0.055964824 0.017743628 -0.016757995
-0.00078541663 -0.0067563094 -0.015979053 -0.024787273 0.033683524 0.024702111 -0.016111156 0.0030266978
0.004339003 -0.011646912 -0.005205776 -0.023784451 -0.018230693 -0.01629214 0.022234099 -0.04058398
0.03038219 -0.037202638 -0.0076419255 -0.023744216 -0.04039748 -0.029492475 -0.017507453 -0.007020839
0.029079013 0.022306193 0.016645648 0.030430429 0.030697413 -0.020164957 0.052415453 0.04009235
-0.016552001 0.0071072765 0.009486372 0.01833954 0.023151403 0.020234684 0.037981056 0.0108109545
0.027477436 -0.033152524 -0.040910657 0.00528829 0.0025177049 0.050544407 -0.017517513 0.0038119643
0.048765715 0.0022237627 -0.019308943 -0.003429458 -0.03831731 -0.03401236 0.018748568 -0.0010473389

net.6.bias f4 [128]
00000000: 7c30 823c e4de c6bc cacf 21bc 4ba9 cd3a
00000010: dcf5 2a3d 77fc a93a 9efb fa3c aa35 16bc
00000020: 4bbe 793c 304a 603b 6595 f03c d06b dbbc
00000030: cff6 273d 6a6f cfbc f683 0a3d d568 3abc
00000040: 922e ecbc 702c 0fbc 6394 e6bc 9893 ca3c
00000050: 81b4 6a3b 4060 0ebd 5869 86bc 5b4f d43c
00000060: 2512 d3bc e3cc 27bd 22ab 08bd 333f 4b3c
00000070: 99d4 143d 7083 203c 4f4b 5d3d 3fcb 28bc
00000080: 5aa4 32bc 17d7 1ebd c355 85bc c139 2f3d
00000090: 1e9a d53c 5ec7 fd3c 3574 ca3c cf61 843b
000000a0: 9c9f acbb 1cc0 92bc c024 243d 6385 003d
000000b0: fce5 1cbd b59d dfbc 7d36 223c 7023 fa3c
000000c0: eb03 9ebc 4812 0f3b 4693 f63c 8ecc 86bc
000000d0: 3a9f b9bb f9cc 113d 4906 203d 4e3f 0c3d
000000e0: ec92 0bba 1f93 f1bc 27a3 e5bb 4be5 27bc
000000f0: e9fd b0bc 107b be3c 1e5c 063c 9de7 dc3c
00000100: 0d33 22bd d4bc abbc 7354 84bc 09ab d6ba
00000110: d7f3 9e3c 5e55 103c f55b e43c 85fb ddbc
00000120: 083d e43c 609f 0639 158d 2ebd 6977 e03c
00000130: ee79 fb3c 84cf 133c b578 243d 161f b83b
00000140: bdf6 ebbc c4ac 1c3b 5822 003d 3ae3 103d
00000150: 804c a1bc 8331 223d f888 bf3c 75c1 ab3b
00000160: 0b80 9cba 3ae7 8f3c 9c91 1d3d 0b03 283d
00000170: 957d a2bb bfb0 163d 44de 0ebc 1538 b7bc
00000180: 2519 1a3c 5770 d0bc e3a6 153c 4c2e 143d
00000190: 85fc b53c 2312 a6bc 4803 f43b b3dd 03bd
000001a0: 7650 153d 35fd 1a3d 492e 6e3c 8798 d4bc
000001b0: fd4d 39bd d2c1 603a 0dfc cabc 7c3c ba3c
000001c0: 8fa5 31bd cef4 37bc 216d dbbc 7dc6 f53b
000001d0: e7fb 6c3c a9d6 8d3c 5e8d 08bd 5379 0dba
000001e0: 09a6 b53c c06e 0a3c 42e4 dbbb 8708 423b
000001f0: 5371 dbbc 4af1 93bc 3da2 d03c c7d7 013d
0.01589226 -0.024276204 -0.009876201 0.0015690712 0.041738376 0.0012968917 0.030637559 -0.009168068
0.015243123 0.0034223907 0.029368112 -0.026784807 0.04100686 -0.025321681 0.033817254 -0.011377533
-0.0288308 -0.008738622 -0.028146928 0.024728581 0.0035813155 -0.03475976 -0.016407654 0.025916746
-0.025765488 -0.04096688 -0.03336633 0.012405205 0.03633556 0.009796962 0.054026898 -0.010302364
-0.010903442 -0.038779344 -0.016276246 0.042779688 0.026074465 0.030978855 0.024713615 0.00403998
-0.0052680504 -0.01791387 0.04007411 0.031377207 -0.038305268 -0.02729688 0.009900686 0.030534476
-0.019288978 0.0021830965 0.030099522 -0.016454961 -0.0056647332 0.035595868 0.039068494 0.03424006
-0.0005324322 -0.029489098 -0.0070079747 -0.010247539 -0.021605449 0.02325204 0.008200673 0.02696591
-0.039599467 -0.020964064 -0.01615355 -0.0016377877 0.019403381 0.008809416 0.02787588 -0.027097473
0.027861133 0.00012838608 -0.042615015 0.02740069 0.030697789 0.009021644 0.040154178 0.00561894
-0.028804177 0.0023906687 0.031282753 0.03537295 -0.019689798 0.039598 0.023380741 0.0052415677
-0.0011940015 0.017566312 0.038468942 0.041018527 -0.004958818 0.036789652 -0.008719984 -0.02236561
0.009405409 -0.025444193 0.009134027 0.036176965 0.022215137 -0.02027232 0.00744668 -0.03219385
0.036453687 0.037839133 0.014537402 -0.025951637 -0.04524039 0.00085738034 -0.02477839 0.02273392
-0.04337078 -0.0112278 -0.026785435 0.0075004683 0.014464355 0.017314272 -0.033337943 -0.0005396802
0.022173898 0.008449256 -0.00671056 0.0029607133 -0.026787436 -0.018059392 0.025467986 0.031699922

net.7.weight f4 [128]
00000000: 0baf 923f c550 963f 862d 983f 001e 9d3f
00000010: 448d 9e3f ca76 993f d71f 923f f5bd 933f
00000020: 2193 943f c154 973f d5e5 973f 7f15 9b3f
00000030: 6878 983f c5a5 953f fe5b 943f 6561 983f
00000040: 1719 9a3f b739 963f 6e80 9f3f 3a84 943f
00000050: 08e8 9c3f c764 8e3f 648d 963f 4400 913f
00000060: d519 9a3f ffaa 923f 7ed9 903f a7f3 923f
00000070: cdbf 9b3f 681b 963f 7a81 913f 0189 983f
00000080: 5998 933f 5292 9b3f 19ab 9a3f 26e4 8b3f
00000090: 4e52 943f 8731 9a3f ee2e 983f 34e4 9a3f
000000a0: 4204 993f c564 9b3f 6bd5 9b3f cf10 9d3f
000000b0: 6836 9a3f 6df1 8e3f 6cd4 963f c0ad 9d3f
000000c0: 7108 913f 456b 963f 64ae a73f bb9d 8f3f
000000d0: b55e a73f 45dd 913f 3dd5 9d3f 74c1 9d3f
000000e0: 2292 9a3f fe3c 993f ec86 923f e8d8 923f
000000f0: dd47 9c3f b624 913f 963a 8f3f 32f2 913f
00000100: 73bc a23f d94f 9d3f eaf9 923f fb2a 933f
00000110: 8f3f 993f de46 943f 5794 993f 8765 983f
00000120: 2412 903f f6c3 923f 9d7d 933f c94b 923f
00000130: 0780 943f 9988 933f 1f46 9e3f 63d2 a13f
00000140: 22e2 913f cc57 973f 551c 9a3f bdf2 8f3f
00000150: c65c 9e3f 1a16 8f3f 51f5 933f 9f83 943f
00000160: 503a 993f 49bc a13f cede 893f d468 a23f
00000170: ca33 993f d185 8f3f 943f 913f 4ed7 943f
00000180: 4782 993f 6582 a33f d86d 943f e46c 8b3f
00000190: c5b8 933f d48b 8f3f b111 ac3f 6d8c 983f
000001a0: f81b 983f 2653 9b3f f2ad 953f b5b1 8f3f
000001b0: 9426 9e3f e978 9d3f e4cd 973f 62ef 913f
000001c0: a2b3 963f 372c 9d3f 2a29 9a3f b18a 9b3f
000001d0: f62a a23f 9207 973f 31d6 993f 5561 923f
000001e0: 4640 9a3f 8564 993f 9533 9d3f 42a5 963f
000001f0: 3a6e 9b3f c9be 903f d6fc 913f b0c7 943f
1.1459669 1.1743399 1.1888893 1.227478 1.2386861 1.1989377 1.1415967 1.1542345
1.16074 1.182274 1.1867014 1.2115935 1.1911745 1.1691214 1.1590574 1.1904722
1.2038907 1.1736363 1.2461069 1.1602852 1.225831 1.1124505 1.1761899 1.1328206
1.2039133 1.1458434 1.1316373 1.1480607 1.2167908 1.1727114 1.1367638 1.191681
1.1530868 1.2154028 1.2083465 1.0929 1.1587617 1.2046365 1.1889322 1.2100892
1.1954424 1.2140127 1.2174505 1.2270755 1.2047853 1.1167427 1.1783576 1.2318649
1.1330701 1.1751486 1.3100095 1.122001 1.3075777 1.1395651 1.23307 1.2324662
1.2075846 1.1971738 1.1447425 1.1472445 1.2209431 1.1339328 1.1189754 1.1402037
1.271376 1.2289993 1.1482518 1.1497492 1.1972522 1.1584127 1.1998395 1.1905984
1.1255536 1.1466053 1.1522709 1.1429378 1.1601571 1.1526061 1.2365149 1.264233
1.1397135 1.1823668 1.2039896 1.1245953 1.2372062 1.117862 1.155924 1.1602668
1.197092 1.2635585 1.077112 1.2688241 1.196893 1.1212713 1.1347528 1.1628206
1.1992882 1.2774168 1.1596022 1.0892606 1.1540762 1.1214547 1.3442899 1.1917855
1.1883535 1.213475 1.1693709 1.1226107 1.2355523 1.2302524 1.1859708 1.1401179
1.177357 1.2279118 1.2043812 1.21517 1.2669361 1.1799185 1.2018491 1.1435953
1.2050865 1.1983801 1.2281367 1.1769183 1.2143013 1.1308223 1.1405284 1.162344

net.7.bias f4 [128]
00000000: 78c0 f63d 69d2 f93d a2c8 053e 853a e33d
00000010: 97eb 533e fffe 033e 7948 d73d 2534 b93d
00000020: 6400 e83d acdb fe3d f345 003e 3b6f 1a3e
00000030: 7fa7 183e 303a 073e 91e2 ca3d 6745 f93d
00000040: 0821 003e 7f46 053e 7155 3c3e fedd e33d
00000050: 5669 163e be8d a73d 164e 043e 8024 c93d
00000060: 8bb4 2f3e bb0f f53d ae41 cc3d b3c8 973d
00000070: 4198 343e 4d2d b63d adb5 fe3d 8b1a 153e
00000080: ddf9 d93d d836 1a3e b01c 243e 12a5 8f3d
00000090: 5c41 e43d 25f4 1b3e 17e6 073e 36bd fd3d
000000a0: 2862 0a3e ea17 1d3e 0931 0a3e b2d5 1d3e
000000b0: 6239 4d3e c3b2 803d f301 043e e1c8 1c3e
000000c0: 52cb a43d 5166 e33d 56b6 813e 5c8a 3f3d
000000d0: 5fb6 653e ad2c 923d 3388 163e 0aca 293e
000000e0: 31d1 2e3e 71e8 2e3e e00c fb3d 6210 e53d
000000f0: 2af0 1d3e 188c a13d 2c4d 9a3d f5ee cb3d
00000100: dd52 183e 3447 2f3e f685 d03d 6e46 ec3d
00000110: bd7a 243e 8ad9 9f3d f464 283e 60d6 323e
00000120: 4c4b 8e3d 24f9 013e 4b32 de3d 83ed d83d
00000130: 7f80 e83d a0a0 cb3d 3d4e 463e 783f 623e
00000140: 75f5 b33d cec2 393e 75a8 0b3e c704 a73d
00000150: e8ad 383e dfc4 693d d5f9 1a3e d740 ee3d
00000160: da63 fd3d 5b30 443e 7d68 d73c 0cbe 1e3e
00000170: 6748 1b3e 028a 9a3d 43c0 ae3d 1b4d 1a3e
00000180: 400e 013e cbc9 383e 73f8 c63d 5fd8 253d
00000190: b901 073e 058d be3d 549e 6a3e 00d3 1d3e
000001a0: b8f6 353e f312 143e 8d79 d73d 0275 8a3d
000001b0: 5c0c 133e 485d 1f3e a2c1 e93d 3308 ce3d
000001c0: 6ec2 173e 68bb 073e d687 123e 60aa 1c3e
000001d0: e810 2e3e 21a3 3a3e 1907 303e d32d cb3d
000001e0: b543 053e 437c 563e 69a0 343e d7be 003e
000001f0: 25de 253e 9be9 af3d 73f4 f23d 169a d53d
0.12048429 0.12198336 0.13064817 0.11095146 0.20695339 0.12890242 0.1051187 0.09043149
0.113281995 0.12444243 0.12526684 0.15081494 0.14907645 0.1320579 0.09906495 0.121714406
0.125126 0.13015173 0.18391968 0.11126326 0.1468862 0.08181332 0.12920412 0.09821415
0.17158715 0.11965891 0.09973465 0.07411327 0.17636205 0.08895359 0.12436996 0.14560907
0.10643361 0.15059984 0.16026568 0.070139065 0.11145279 0.15229852 0.13271366 0.12389605
0.13514006 0.15341154 0.13495268 0.1541355 0.20041421 0.06284096 0.12891369 0.15311004
0.08046593 0.111035 0.25334424 0.04676281 0.2243285 0.071374275 0.14700393 0.16580978
0.17071988 0.17080857 0.12258315 0.111847654 0.15423647 0.07888049 0.075342506 0.09957687
0.1487536 0.17117006 0.10181801 0.11536871 0.16062446 0.07805164 0.1644476 0.1746459
0.069479555 0.12692696 0.10849436 0.10592177 0.11352634 0.09942746 0.19365783 0.22094524
0.087870516 0.18140718 0.1363848 0.08155208 0.1803509 0.057072517 0.15134366 0.11633461
0.12372561 0.19159071 0.026294941 0.15502185 0.15164338 0.07545854 0.08532765 0.15068476
0.12603092 0.18045728 0.09715357 0.04048955 0.13184251 0.09304241 0.2291196 0.15412521
0.17769897 0.14460354 0.10521231 0.06760599 0.14360183 0.15562928 0.11413886 0.100601576
0.14820263 0.13255084 0.1430963 0.15299368 0.16998637 0.18226291 0.17190208 0.0992085
0.1301411 0.2094584 0.17639317 0.125728 0.16198023 0.085894786 0.11863031 0.1042978

net.7.running_mean f4 [128]
00000000: 8880 f9be d9e7 7b3d aabe 9e3f a49d 82bf
00000010: 76a3 4abf 7dc6 1040 00ed 10bf 2ed4 1d3f
00000020: d9f9 dd3d bfee cebf b8eb 573f f3c2 763f
00000030: cfe5 823e a7b8 e7be 1165 703f d3e7 c23e
00000040: 5b12 563e 6adb a3bf 2cb9 833f 53a8 b93f
00000050: 7f69 073f f817 aa3e d5fa 21bf 8638 ca3f
00000060: 30a6 3cbf 3033 66bf 2916 aebf b31e abbf
00000070: 8ea2 21be 130f 883f 059e 79bf ca55 93bd
00000080: f5eb 053e d653 90bf f9d4 d33f 0a83 cebf
00000090: 1be8 9d3f d9ce ecbe 0b03 3d3e 5861 0f3f
000000a0: 4c2f b03e 041d 0cbe 3e41 89bf 7554 90bf
000000b0: 40ba 9cbf 4245 553f de8f c9bf 5fe4 8b3f
000000c0: fceb c6be 5e63 43be b483 bd3f 1c33 3b3f
000000d0: 3989 353e b7be b63f 96ca d8bf f41e d7bf
000000e0: 0cc5 c1bf f975 c9be a7ed 493e 487a eebf
000000f0: 1201 d53f 7e85 e23f adf5 663d f164 6fbf
00000100: 0e9b 003f 6e52 c13f 7c11 033f a113 9bbf
00000110: 31bc b3bf 2ef8 703f a87b c4bf 701b 88bf
00000120: 2a28 0b3f 210f aebf abf2 c5bf 0c67 35be
00000130: 7a54 d9be 59db be3e a7c9 7a3c 7361 cebf
00000140: 5e15 1dbe bdad cbbe 98aa 363f ff2f a4bf
00000150: 282c 623f b45e f03d f197 0abf ce02 1abf
00000160: 9b2a 013e 5d65 01c0 a6f3 32bf 0b7a 11c0
00000170: 1f91 203f 970d 0040 347b 863f 5cb0 19bf
00000180: ca04 a2bf 9ca8 86bf 2d4c c4be 8b1f d13f
00000190: a0a1 003d 8737 54be 0c3a 583f ce72 8ebf
000001a0: d85f a7bf d9a1 cd3f 0c4f 6b3f c1fc cd3d
000001b0: 4b01 9bbf 9c21 f0bf 8f76 c43f 2818 c1bf
000001c0: bc3f b83e ff03 7e3f 3014 823f 623c ff3e
000001d0: b1dd a23f 4c2e a63f 5e2e 49bf 2d45 8dbe
000001e0: 0cb4 c13f 467b 9dbf fe63 97be cc7b 303f
000001f0: 1d4a 503f 5ec3 bcbe ee7a 2a3d 82aa 13bd
-0.48730874 0.061500404 1.2401936 -1.0204358 -0.7915567 2.2621148 -0.56611633 0.61651886
0.1083867 -1.616661 0.84344053 0.9639122 0.25565955 -0.45258066 0.93904215 0.38067493
0.2090544 -1.2801335 1.0290885 1.4504493 0.5289535 0.33221412 -0.63273364 1.57985
-0.7369108 -0.89921856 -1.3600513 -1.3368744 -0.15784666 1.06296 -0.97506744 -0.07194097
0.13078292 -1.1275585 1.6549369 -1.613374 1.2336458 -0.46251562 0.18458192 0.5600791
0.34411085 -0.13682944 -1.0723035 -1.1275774 -1.2244339 0.83308804 -1.574703 1.0929068
-0.38851917 -0.19080874 1.4805818 0.7312486 0.17728128 1.4276952 -1.6936824 -1.6806321
-1.5138259 -0.39347818 0.19719563 -1.8631067 1.6640952 1.7696989 0.05638664 -0.935134
0.50236595 1.510328 0.51198554 -1.2115365 -1.4041806 0.9412869 -1.5350237 -1.0633373
0.5435816 -1.3598367 -1.5464681 -0.1771509 -0.42447263 0.37276724 0.015306867 -1.6123489
-0.15340182 -0.3978099 0.71354055 -1.2827147 0.8834863 0.11736813 -0.54138094 -0.6016053
0.12613909 -2.0218117 -0.6990303 -2.273074 0.6272144 2.0008295 1.0506349 -0.6003473
-1.2657712 -1.0520205 -0.38339368 1.6337751 0.031404138 -0.20724307 0.8446357 -1.1128786
-1.3076124 1.6065017 0.9191749 0.100579746 -1.210977 -1.8760257 1.5348681 -1.5085497
0.35986125 0.9922485 1.0162411 0.49850756 1.2723905 1.2982879 -0.78586376 -0.2759184
1.5133071 -1.2303245 -0.29568475 0.689389 0.8136309 -0.36867803 0.04162114 -0.03605128

net.7.running_var f4 [128]
00000000: d191 483f b84d c83f a2b7 5940 6eaa 1740
00000010: 1b01 a73f 5749 1741 9d85 3b40 8dd6 6940
00000020: ef7e 8340 ad3d c23f 3a24 9c3f 2c73 b540
00000030: 67b1 853f 3286 873f e24c 2b40 179b 0040
00000040: a388 8640 4dfe 823f b366 0e40 5d3d bb40
00000050: b18a 5f40 9bf1 733f 7b7c 503f 7b8e ae40
00000060: bd8b ca3f 68e1 853f ce2a 873f e448 233f
00000070: 415b b83f 9e61 ab3f 4bed c03f 480c 4340
00000080: 2aca 0c40 2663 0c40 408c 5341 bab6 793f
00000090: adf4 9a40 5f34 5940 d155 7440 a501 a23f
000000a0: a2ca b43f 9e15 4640 218b 933f 49c5 dd3f
000000b0: 1591 1540 c330 5c3f 85b4 fe3f 39ea a140
000000c0: 4743 c73f 365a 773f b010 7041 9643 723f
000000d0: 1ba3 3e40 5540 5b40 4007 933f 14cb 4b3f
000000e0: 804a 653f 38ab 403f 16c3 c03f 20aa 8a3f
000000f0: 394b 3541 df3d 5640 91ae 383f 26ae ee3f
00000100: 3627 2440 75fd d940 3496 c93f cfde 953f
00000110: 092d 1540 641e 0940 a8bb ba3f 8c94 543f
00000120: d4ab 7d3f 6fb8 2540 5121 bb3f e58a ee3f
00000130: 42cf 453f 6806 b53f 3458 4240 60ff 1d40
00000140: a749 e03f b487 dd3f 07a2 9740 fa51 ca3f
00000150: fda6 9c40 dc8a e83f 9be7 c43f bc1e 1f3f
00000160: 4966 eb3f 6412 4c40 9e51 6440 63c2 7640
00000170: 04d8 fb3f 41f2 1140 8f2f 2040 3e1c 293f
00000180: c73f 0440 7f70 a03f 7396 a53f ef4c 883f
00000190: 34a4 1640 52c1 103f 698d 8040 bdf8 9d3f
000001a0: 2589 6e3f ce7e 2b40 78fe 483f 7e7d 6f3f
000001b0: 4085 cd3f f91d 8d40 a68b ff3f 78c8 8b3f
000001c0: efa5 f83f 5be6 d43f c4a5 0b40 b222 6c40
000001d0: 2f55 c640 f1dc 2240 2254 0d40 62f0 003f
000001e0: 0226 3f40 a558 5940 81cb 1740 0697 ed3f
000001f0: f72c f03f b973 f33f 35e9 ac40 02ed 0340
0.783475 1.5648718 3.401833 2.3697772 1.3047212 9.455405 2.93003 3.6537201
4.109245 1.5175072 1.2198555 5.670309 1.0444764 1.0587828 2.6765676 2.009466
4.2041793 1.0233856 2.2250183 5.8512406 3.49284 0.95290536 0.8143994 5.4548926
1.5823895 1.0459414 1.0559938 0.637831 1.4402848 1.3389165 1.5072416 3.0476246
2.199839 2.1935515 13.221741 0.97544444 4.8423676 3.3938215 3.8177378 1.2656752
1.4124339 3.0950694 1.1526834 1.7325832 2.33698 0.86011904 1.989884 5.0598416
1.5567406 0.96622026 15.004074 0.9463438 2.9787052 3.4258015 1.1486588 0.7960675
0.895668 0.7526126 1.5059536 1.0833168 11.330865 3.3475263 0.7214137 1.8646896
2.5648932 6.8121896 1.5748963 1.1708621 2.3308737 2.14248 1.4588518 0.83039165
0.99090314 2.589382 1.4619542 1.8636137 0.77269375 1.414258 3.0366335 2.4687119
1.7522477 1.7307038 4.7385287 1.5806267 4.8953843 1.8167377 1.538318 0.6215627
1.839059 3.1886225 3.5674815 3.8556144 1.9675298 2.280411 2.5029027 0.6605872
2.0663927 1.2534331 1.2936538 1.0648478 2.3537722 0.56544983 4.017262 1.2341534
0.93178016 2.6796145 0.7851329 0.9355086 1.605629 4.409909 1.9964492 1.0920553
1.9425639 1.6632799 2.1819925 3.6896176 6.1978984 2.5447352 2.20826 0.50366795
2.9866948 3.3960354 2.371796 1.8561714 1.8763722 1.9019691 5.4034677 2.0613408
